checkpoint_critic.pth (torch_old, 549771 bytes, 9 tensors)

fcs1.weight f4 [400, 33]
0.7565339 1.0342151 -0.9343277 -0.96620965 -1.5638292 0.709741 -1.5115598 -0.11443615
0.6700264 0.59682363 0.067514256 -0.4758789 0.056893744 0.4979356 -1.0178125 0.64997005
-0.5301124 -0.22059956 0.16327474 0.4313594 0.56214654 -0.26820883 -0.4095547 -0.15765758
-0.8029947 -0.9651223 -0.2046675 0.004920912 -0.4999631 -0.040101133 -0.0035925815 -0.013945557
-5.122843 1.1557859 0.6607196 0.18839274 0.91159105 1.6392246 1.4067411 1.0837893
-0.3379114 -0.8114148 -0.13859452 0.46150267 0.27562228 -0.29252595 -1.3711149 0.33814338
-1.4311475 -0.45121384 -0.81960803 0.42401454 -0.15829657 -0.08750877 0.493814 -0.4452419
0.12711146 -0.04217302 -0.507092 0.17595972 0.041536827 0.7760056 -0.029689271 0.0013532352
0.0036308654 3.2380834 0.029872978 0.0058082314 -1.0339578 0.19176818 0.507451 1.0243508
-1.4925581 0.2508551 -0.12493274 0.5210119 0.11429236 0.22495534 -0.02241529 -0.21499553
1.8198482 1.7789419 -0.27021134 0.06939018 0.09618491 -0.4594366 0.02805341 0.025272623
-0.12793906 0.001979609 0.38227603 -0.082769744 0.08687551 -0.009505106 -0.98371947 0.023719456
-0.021855222 -0.04349489 -0.16837534 0.22214964 0.5736621 -1.8521637 -1.6415261 -0.82778955
-1.196514 -0.91316694 0.30249852 0.34480777 -0.5823959 1.1460732 -0.07822625 -0.46997654
-0.048927203 0.0022367542 0.52382106 0.5649288 -0.056992177 0.91708785 -0.4124682 0.035215087
0.03064456 -0.38458267 0.77719945 0.31480145 0.25734434 -1.1350771 0.030018616 1.1390024
0.032071542 -0.0118381 0.00822553 -2.7099576 0.64960766 1.4416778 0.2285867 -0.48285183
-0.060247734 0.6336226 -3.765137 0.17219864 0.37037715 -0.24110106 0.8278681 0.51872146
-1.060643 -0.37184507 0.21036343 0.73242855 0.68116546 -0.8825507 -1.0222758 -0.5624669
-0.013830971 -0.099315114 -0.5389263 0.0859249 0.3105787 -1.3106734 -0.8451124 0.016856829
-0.7349222 -0.043984212 0.018426111 -0.0030933097 2.9185352 0.6161469 0.008681189 -0.07210194
-0.5392987 0.80398595 1.270751 0.8417057 -0.37178293 -0.2165106 -0.3550077 -0.085290186
-0.13499105 0.0018722543 -0.42215234 0.09362809 0.0143896565 0.34827757 0.36092916 0.15100421
0.43902406 0.0002614204 -0.06074519 -0.1788454 -0.24751276 0.17955762 0.36288333 -0.074213326
-0.039362065 0.3683206 -0.04055267 0.0028952132 -0.009670667 -12.054357 1.196714 -0.39663824
-0.39048597 -0.45979816 1.6501869 0.22360341 -1.630682 0.022484245 0.53088266 -0.5445265
0.4368012 -0.04709409 -0.5628752 -1.0154431 1.3413638 -1.0200305 0.037215777 0.18104784
1.020896 0.18450387 -0.08261735 -0.4455514 0.18131635 -0.21129473 0.13164766 -0.18185142
0.9525884 0.025989586 0.6720837 -0.046085186 0.03990753 -0.04248194 -3.6668022 -0.37756222
-0.5524529 1.2408646 -1.3210452 -0.016732981 -0.6300994 0.61373484 1.8027251 -1.7104963
0.18012686 0.24235575 -0.11842822 0.30125755 1.0988781 -0.17275879 -0.4493192 0.48558933
0.2971037 -0.23329206 -0.89989316 -2.1015427 0.29226437 -0.34747836 -0.047924004 -0.09707843
00000000: 35ac 413f 2961 843f 1a30 6fbf 8459 77bf
00000010: 8e2b c8bf 96b1 353f cb7a c1bf 805d eabd
00000020: da86 2b3f 6fc9 183f ea44 8a3d 66a6 f3be
00000030: 6a09 693d 6af1 fe3e ae47 82bf 7064 263f
00000040: 72b5 07bf dae4 61be 7e31 273e 24db dc3e
00000050: d6e8 0f3f ab52 89be 27b1 d1be fd70 21be
00000060: 1091 4dbf 4112 77bf 5b94 51be 9a3f a13b
00000070: 2afb ffbe 1641 24bd 8471 6bbb e87b 64bc
00000080: 54ee a3c0 cbf0 933f eb24 293f 07ea 403e
00000090: 085e 693f 1dd2 d13f 1810 b43f 9cb9 8a3f
000000a0: b902 adbe e1b8 4fbf b9eb 0dbe 144a ec3e
000000b0: 5d1e 8d3e f6c5 95be b180 afbf 2121 ad3e
000000c0: d72f b7bf 8005 e7be d5d1 51bf 6f18 d93e
000000d0: 7f18 22be cc37 b3bd 30d5 fc3e bff6 e3be
000000e0: 8229 023e 9ebd 2cbd c8d0 01bf c92e 343e
000000f0: 8522 2a3d 4ea8 463f ea36 f3bc 0a5f b13a
00000100: d0f3 6d3b c23c 4f40 2db8 f43c fa52 be3b
00000110: bb58 84bf e15e 443e 4fe8 013f ed1d 833f
00000120: 250c bfbf 1470 803e bddc ffbd 0961 053f
00000130: 1d12 ea3d b15a 663e 45a0 b7bc ca27 5cbe
00000140: c9f0 e83f 5eb4 e33f 2459 8abe 701c 8e3d
00000150: 98fc c43d 463b ebbe 44d0 e53c 8808 cf3c
00000160: 7502 03be 54bc 013b afb9 c33e 2f83 a9bd
00000170: caeb b13d 4ebb 1bbc 0ad5 7bbf 4e4f c23c
00000180: b909 b3bc b327 32bd 966a 2cbe 327b 633e
00000190: 85db 123f b313 edbf 871d d2bf 04ea 53bf
000001a0: 5f27 99bf 4fc5 69bf 16e1 9a3e a58a b03e
000001b0: e617 15bf 87b2 923f 1635 a0bd c4a0 f0be
000001c0: e467 48bd 8296 123b 2319 063f 2d9f 103f
000001d0: a170 69bd 45c6 6a3f 082f d3be b23d 103d
000001e0: 4d0a fb3c 05e8 c4be 8bf6 463f a82d a13e
000001f0: a3c2 833e 354a 91bf 9ae9 f53c d5ca 913f
00000200: 735d 033d 97f4 41bc 60c4 063c f26f 2dc0
00000210: b04c 263f e688 b83f a212 6a3e 5b38 f7be
00000220: 54c6 76bd 1735 223f 01f8 70c0 d754 303e
00000230: 13a2 bd3e 32e3 76be 2aef 533f eeca 043f
00000240: 26c3 87bf 7a62 bebe 8369 573e 7080 3b3f
00000250: dc60 2e3f d8ee 61bf efd9 82bf d5fd 0fbf
00000260: 4c9b 62bc b965 cbbd 13f7 09bf 65f9 af3d
00000270: 2c04 9f3e 25c4 a7bf 4959 58bf 5517 8a3c
00000280: dc23 3cbf ca28 34bd 5bf2 963c 20b9 4abb
00000290: 48c9 3a40 cebb 1d3f 8c3b 0e3c 2faa 93bd
000002a0: 7b0f 0abf 06d2 4d3f f8a7 a23f 067a 573f
000002b0: 555a bebe f4b4 5dbe 92c3 b5be 9fac aebd
000002c0: 183b 0abe 6e66 f53a 5a24 d8be 16c0 bf3d
000002d0: 98c2 6b3c 7051 b23e b5cb b83e d9a0 1a3e
000002e0: c3c7 e03e 410f 8939 f3cf 78bd 4023 37be
000002f0: fc73 7dbe f4dd 373e d8cb b93e 28fd 97bd
00000300: 1e3a 21bd 8594 bc3e 8e1a 26bd 9ebd 3d3b
00000310: b871 1ebc a5de 40c1 ed2d 993f 2b14 cbbe
00000320: c7ed c7be aa6a ebbe 5339 d33f 4bf8 643e
00000330: 30ba d0bf e130 b83c ede7 073f 1766 0bbf
00000340: 68a4 df3e bce5 40bd 9718 10bf 0afa 81bf
00000350: cfb1 ab3f 5c90 82bf 926f 183d 9b64 393e
00000360: b8ac 823f 95ee 3c3e 4933 a9bd 501f e4be
00000370: feaa 393e a55d 58be a5ce 063e 4237 3abe
00000380: d5dc 733f 1de8 d43c ad0d 2c3f d2c3 3cbd
00000390: 1476 233d 8b01 2ebd e3ac 6ac0 d64f c1be
000003a0: 8e6d 0dbf a7d4 9e3f 0218 a9bf 9b13 89bc
000003b0: 324e 21bf ba1d 1d3f b2bf e63f 8bf1 dabf
000003c0: 2d73 383e 1b2c 783e 7f8a f2bd 6e3e 9a3e
000003d0: 0aa8 8c3f aee7 30be 2b0d e6be 2a9f f83e
000003e0: fa1d 983e 1de4 6ebe 665f 66bf ad7f 06c0
000003f0: ada3 953e afe8 b1be f64b 44bd 0ed1 c6bd

fcs1.bias f4 [400]
0.048392992 0.1554677 0.09142948 0.029174099 -0.117709056 0.11633977 0.00011062047 0.057692304
-0.08338004 -0.14448623 -0.15508173 -0.052331336 -0.12953463 -0.15095195 0.17176688 0.06911305
-0.021821832 -0.15399808 -0.12368577 -0.16417332 -0.043501835 0.12388451 -0.02260353 0.03830334
-0.012943485 0.105297245 0.1664916 -0.0709491 -0.14038378 0.10248414 0.11484844 0.013768083
-0.078746125 -0.041001722 0.09813498 0.052012675 -0.060628384 0.04946105 0.054318313 -0.049917147
-0.09956217 0.042686727 0.042727564 0.16905844 -0.028817985 0.02559326 0.038413387 0.07799111
0.08163306 -0.12143789 0.14784019 0.03453233 0.1740138 -0.13412361 0.15459771 0.12743664
-0.066132315 -0.16091499 0.028529195 0.1062439 -0.08895778 0.07233714 0.027304726 0.14792694
0.1695175 0.07918336 -0.032725148 -0.057704538 0.122767225 -0.094055325 -0.06499976 -0.10203074
-0.17346135 0.15657969 0.11145281 0.0711922 0.12816022 0.12402063 0.12012363 -0.11321392
0.113663 -0.014877113 0.16717869 0.15319271 0.038990412 -0.09403905 0.16430831 -0.17226005
-0.07462463 0.052156996 0.020319263 -0.13206698 -0.10595539 0.034024913 -0.03331847 -0.14021595
0.10080983 0.12823552 -0.016612384 0.087999724 0.03638205 0.09668009 0.0010979973 0.052493516
0.12119984 -0.054354414 0.124799974 0.050628487 -0.14090987 0.13843338 -0.06841901 -0.17030579
-0.044184703 -0.17205933 -0.049794745 -0.043122776 -0.12501077 0.14180073 0.10935762 0.08526161
0.1606999 -0.070487455 0.06656212 0.1291584 0.13915071 0.06371561 0.07986755 0.15853582
0.14554375 -0.1387093 0.14364262 -0.06500588 0.11308756 -0.16972308 0.15571646 0.14508894
-0.049263723 0.15877861 0.035768967 -0.11488398 0.06879523 -0.11039811 -0.091215245 0.14986812
0.00538028 -0.09506477 -0.16683133 -0.008819982 0.019749125 -0.029962301 0.007873205 0.14166023
-0.15887311 0.040656455 -0.020056484 -0.15334193 -0.16950527 -0.007825247 -0.16777758 0.1724436
-0.14908214 -0.00490854 -0.0039806743 -0.101656534 0.16225457 -0.024721673 -0.06527915 0.14382464
0.05658593 -0.05268506 -0.1688404 -0.03344446 -0.043274354 -0.047567554 0.10324303 -0.013151478
0.0483067 0.14205196 0.003169118 0.16403212 0.07293791 -0.13029438 0.08696242 -0.07226401
0.13744465 0.0487491 -0.10506233 -0.105124936 -0.1727909 -0.16644992 -0.10724653 0.04459403
-0.050006144 0.033710383 -0.14896384 -0.00080510654 -0.08235379 0.045200005 -0.12047397 0.083737254
-0.07244985 0.019363 -0.07433646 0.14804651 0.01633891 0.08466017 -0.0686533 0.13941869
-0.064536035 0.11136071 0.166805 -0.08761619 0.039655317 0.03527876 -0.00048688162 0.0753724
0.15406838 -0.0013436062 0.04260776 0.108130574 -0.14316194 0.10275285 0.005104155 -0.12613986
0.07159101 -0.079656646 -0.1278894 -0.056790996 0.022941768 0.10019161 -0.07681865 0.1454057
-0.12366249 -0.12722816 0.0684005 0.16418196 0.13205929 0.12551156 0.0107338205 -0.06198189
-0.12946959 -0.12415877 0.053967346 -0.012517912 -0.027575796 -0.033230703 -0.0003266805 -0.10261451
-0.03945175 0.14327861 -0.09227519 -0.011942213 -0.13689812 -0.06983746 0.059182804 0.07510445
00000000: bb37 463d ed32 1f3e 613f bb3d 85fe ee3c
00000010: 7211 f1bd 8c43 ee3d eafc e738 c44e 6c3d
00000020: 28c3 aabd 33f4 13be bfcd 1ebe 6259 56bd
00000030: baa4 04be 2693 1abe a8e3 2f3e 258b 8d3d
00000040: b3c3 b2bc acb1 1dbe f74e fdbd 0d1d 28be
00000050: fb2e 32bd 29b7 fd3d 0a2b b9bc f7e3 1c3d
00000060: e910 54bc 15a6 d73d c67c 2a3e c34d 91bd
00000070: c4c0 0fbe 34e3 d13d a935 eb3d 8793 613c
00000080: a645 a1bd 6cf1 27bd fefa c83d 3e0b 553d
00000090: 7855 78bd ac97 4a3d e17c 5e3d ec75 4cbd
000000a0: 40e7 cbbd 47d8 2e3d 1903 2f3d a81d 2d3e
000000b0: b213 ecbc f5a8 d13c 5b57 1d3d ceb9 9f3d
000000c0: 3c2f a73d 6eb4 f8bd 6b63 173e c671 0d3d
000000d0: ac30 323e b357 09be dd4e 1e3e c07e 023e
000000e0: 6170 87bd e6c6 24be 0fb6 e93c 6796 d93d
000000f0: 7f2f b6bd 7f25 943d 29ae df3c 297a 173e
00000100: ff95 2d3e e32a a23d ce0a 06bd 985b 6cbd
00000110: 626d fb3d 14a0 c0bd 981e 85bd 7ef5 d0bd
00000120: da9f 31be 6d56 203e 5f41 e43d 37cd 913d
00000130: 6f3c 033e 87fe fd3d 6103 f63d b3dc e7bd
00000140: 26c8 e83d 22bf 73bc e430 2b3e 8dde 1c3e
00000150: 69b4 1f3d 8c97 c0bd 7040 283e f064 30be
00000160: ccd4 98bd 93a2 553d 9574 a63c 913c 07be
00000170: 24ff d8bd b55d 0b3d f378 08bd c594 0fbe
00000180: 6275 ce3d 2c50 033e b216 88bc 3339 b43d
00000190: 5805 153d 3600 c63d adea 8f3a 7103 573d
000001a0: 9f37 f83d bca2 5ebd 2197 ff3d d15f 4f3d
000001b0: ad4a 10be 7bc1 0d3e 441f 8cbd a464 2ebe
000001c0: 05fb 34bd 5230 30be 93f5 4bbd 82a1 30bd
000001d0: d302 00be 3634 113e e3f6 df3d a49d ae3d
000001e0: 848e 243e ba5b 90bd b951 883d 1a42 043e
000001f0: 867d 0e3e 547d 823d 9991 a33d 3757 223e
00000200: 6c09 153e d009 0ebe 0d17 133e ce21 85bd
00000210: 739a e73d e3cb 2dbe 2374 1f3e 3292 143e
00000220: c2c8 49bd dc96 223e 7b82 123d 4b48 ebbd
00000230: 83e4 8c3d 6718 e2bd 0fcf babd 0777 193e
00000240: 0f4d b03b 51b1 c2bd d5d5 2abe b081 10bc
00000250: ebc8 a13c 8073 f5bc 9dfe 003c 610f 113e
00000260: a2af 22be 6287 263d 7f4d a4bc ab05 1dbe
00000270: ca92 2dbe 7735 00bc e3cd 2bbe 0e95 303e
00000280: fda8 18be d1d7 a0bb 5170 82bb 4d31 d0bd
00000290: 1026 263e 1b85 cabc 13b1 85bd c446 133e
000002a0: a6c6 673d 4acc 57bd 7fe4 2cbe 0ffd 08bd
000002b0: 7340 31bd 32d6 42bd 1571 d33d 4c79 57bc
000002c0: 3fdd 453d 1276 113e fab0 4f3b 09f8 273e
000002d0: 7960 953d e46b 05be 5a19 b23d 27ff 93bd
000002e0: 4abe 0c3e 23ad 473d eb2a d7bd be4b d7bd
000002f0: 19f0 30be d971 2abe 12a4 dbbd 3ba8 363d
00000300: 3ed3 4cbd e613 0a3d fa89 18be c90d 53ba
00000310: 1ba9 a8bd a423 393d 0fbb f6bd 707e ab3d
00000320: 9660 94bd 279f 9e3c b73d 98bd 8199 173e
00000330: 2ed9 853c 5062 ad3d 1a9a 8cbd c6c3 0e3e
00000340: 782b 84bd 1511 e43d eece 2a3e 1e70 b3bd
00000350: 9d6d 223d 7680 103d 2544 ffb9 d85c 9a3d
00000360: 1ac4 1d3e f11b b0ba 7985 2e3d 9073 dd3d
00000370: 0b99 12be 1670 d23d c140 a73b cf2a 01be
00000380: 4f9e 923d 0623 a3bd 70f5 02be ad9d 68bd
00000390: 60f0 bb3c 4231 cd3d 1953 9dbd 3be5 143e
000003a0: c242 fdbd 1948 02be 9015 8c3d 511f 283e
000003b0: 8d3a 073e 1a86 003e e8dc 2f3c b9e0 7dbd
000003c0: ad93 04be f446 febd dd0c 5d3d ee17 4dbc
000003d0: a3e6 e1bc eb1c 08bd 5146 abb9 8e27 d2bd
000003e0: 2998 21bd a1b7 123e c6fa bcbd 46a9 43bc
000003f0: 052f 0cbe f106 8fbd ab69 723d 5dd0 993d

bn1.weight f4 [400]
0.35718554 0.2849151 0.23229198 0.44905642 0.32909104 0.56395304 0.46044692 0.35874665
0.20548233 0.3180279 0.36233884 0.27798417 0.6917416 0.47980905 0.5646498 0.6069998
0.70751196 0.39495105 0.5062234 0.22937377 0.41989258 0.28320193 0.34250095 0.14378296
0.4721025 0.32311788 0.11735285 0.35413563 0.39825657 0.53395545 0.26996326 0.43077937
0.52050453 0.5826007 0.22571672 0.36664551 0.46413997 0.15100503 0.49268058 0.12924704
0.31333905 0.48487252 0.73885185 0.6357966 0.21121638 0.56647384 0.25753126 0.4861995
0.39961737 0.6477201 0.30621368 0.43837565 0.770044 0.38508627 0.16530505 0.266203
0.06784756 0.6395082 0.27061746 0.488353 0.5011587 0.55524033 0.4232351 0.24710985
0.3106103 0.59137404 0.64535433 0.257385 0.45990235 0.5459454 0.42046678 0.30696392
0.23008797 0.504767 0.5013291 0.29523715 0.51995504 0.31350538 0.540051 0.28666067
0.3038138 0.907211 0.3335378 0.21235348 0.31723025 0.47432584 0.25697094 0.24003625
0.45586282 0.33624732 0.43882582 0.57882416 0.62033355 0.6642361 0.45788634 0.57830495
0.6103924 0.3109569 0.47812185 0.41691762 0.2561728 0.35761157 0.42336655 0.47812042
0.43708995 0.47625482 0.17531233 0.72755647 0.6276988 0.5023652 0.5966947 0.42305246
0.46260023 0.52599275 0.19921115 0.49274728 0.43581504 0.30918992 0.35456002 0.2859766
0.57536733 0.43636882 0.43827987 0.38258755 0.41053587 0.40775087 0.29488674 0.17024784
0.089608856 0.31422043 0.26943853 0.4701308 0.40251112 0.20999855 0.48187953 0.33528054
0.41447237 0.33222896 0.52811784 0.50451905 0.51612985 0.26048473 0.40089604 0.38644207
0.43950438 0.5546074 0.2481123 0.48022506 0.43065464 0.20519549 0.42935368 0.47219792
0.29792467 0.33793688 0.27163443 0.4077059 0.40343544 0.2998834 0.2926381 0.23531868
0.22622783 0.32451922 0.55565864 0.5115032 0.5569777 0.36321718 0.023493152 0.580462
0.48294392 0.5227685 0.32821003 0.23591948 0.40065423 0.27290508 0.22162084 0.53102565
0.6629419 0.48515457 0.34715268 0.43592393 0.49765083 0.31092182 0.45483246 0.4431053
0.54118395 0.36589053 0.37646747 0.6977175 0.5589298 0.5332907 0.55334646 0.37966645
0.47096092 0.35472265 0.5647853 0.31327578 0.2329165 0.19097501 0.3154529 0.57378435
0.2517402 0.23701258 0.16351883 0.3207069 0.2433895 0.4185773 0.4997831 0.378983
0.7641199 0.31475392 0.23221906 0.2719323 0.23242882 0.39400512 0.25070977 0.2620509
0.25684875 0.5491022 0.35289675 0.40470555 0.29151407 0.3554395 0.48279807 0.34805036
0.5216732 0.5951804 0.5719365 0.1101174 0.119588815 0.5573072 0.5218462 0.53363657
0.29479694 0.27485317 0.26723278 0.32758498 0.58706594 0.4971681 0.47065336 0.56580853
0.43502995 0.27402553 0.2764866 0.16012639 0.5624809 0.4614681 0.6774241 0.9726397
0.2782686 0.46891734 0.30475548 0.37107128 0.53169006 0.26458246 0.28589773 0.18824536
00000000: 06e1 b63e 64e0 913e f3dd 6d3e b9ea e53e
00000010: 9f7e a83e 3a5f 103f b3bf eb3e a4ad b73e
00000020: f669 523e 8ed4 a23e 7a84 b93e f153 8e3e
00000030: fa15 313f 88a9 f53e e48c 103f 5764 1b3f
00000040: 811f 353f 0637 ca3e db97 013f f5e0 6a3e
00000050: 29fc d63e d8ff 903e 495c af3e d73b 133e
00000060: 6bb7 f13e b56f a53e b156 f03d 4451 b53e
00000070: 49e8 cb3e 4eb1 083f a038 8a3e 1d8f dc3e
00000080: c93f 053f 5225 153f 4922 673e f6b8 bb3e
00000090: c1a3 ed3e 10a1 1a3e a140 fc3e 5659 043e
000000a0: fa6d a03e 3641 f83e 6525 3d3f 91c3 223f
000000b0: 1b49 583e 6e04 113f 23db 833e 24ef f83e
000000c0: a69a cc3e fcd0 253f 0ac8 9c3e c672 e03e
000000d0: 9b21 453f 072a c53e ba45 293e c24b 883e
000000e0: a9f3 8a3d cfb6 233f 5f8e 8a3e 6809 fa3e
000000f0: f04b 003f 3b24 0e3f 45b2 d83e 5d0a 7d3e
00000100: 5008 9f3e 4a64 173f f135 253f f7c7 833e
00000110: 5278 eb3e 14c3 0b3f 6c47 d73e 602a 9d3e
00000120: 2e9c 6b3e 6938 013f 1b57 003f 5329 973e
00000130: c61b 053f c783 a03e c840 0a3f 30c5 923e
00000140: 7b8d 9b3e fb3e 683f 77c5 aa3e 3173 593e
00000150: 016c a23e d6da f23e b291 833e 10cc 753e
00000160: da66 e93e 9c28 ac3e c7ad e03e d22d 143f
00000170: 2ece 1e3f 610b 2a3f 1470 ea3e cb0b 143f
00000180: ad42 1c3f be35 9f3e 63cc f43e 3a76 d53e
00000190: 1529 833e dd18 b73e 80c3 d83e 33cc f43e
000001a0: 41ca df3e acd7 f33e 1385 333e 2441 3a3f
000001b0: deb0 203f 019b 003f fcc0 183f 559a d83e
000001c0: f0d9 ec3e 76a7 063f 02fe 4b3e 5f49 fc3e
000001d0: 2623 df3e 244e 9e3e e488 b53e 866b 923e
000001e0: 464b 133f bc6b df3e 3866 e03e 84e2 c33e
000001f0: c231 d23e b9c4 d03e 65fb 963e 7355 2e3e
00000200: d984 b73d 80e1 a03e d9f3 893e fcb4 f03e
00000210: f015 ce3e dc09 573e eab8 f63e e4a9 ab3e
00000220: b935 d43e ea19 aa3e bb32 073f 2928 013f
00000230: 1621 043f 415e 853e 3f42 cd3e bcdb c53e
00000240: b806 e13e c0fa 0d3f 2711 7e3e 0fe0 f53e
00000250: c47e dc3e c41e 523e 3fd4 db3e edc3 f13e
00000260: 9589 983e 1006 ad3e ab13 8b3e d4be d03e
00000270: 178f ce3e 518a 993e a9d4 953e 61f7 703e
00000280: 45a8 673e 6227 a63e a53f 0e3f e0f1 023f
00000290: 1796 0e3f 9af7 b93e b674 c03c 2899 143f
000002a0: 6d44 f73e 28d4 053f 250b a83e e094 713e
000002b0: 8d22 cd3e 37ba 8b3e 93f0 623e 4cf1 073f
000002c0: 8fb6 293f 2e66 f83e ffbd b13e 6c31 df3e
000002d0: 17cc fe3e 2531 9f3e cddf e83e b3de e23e
000002e0: 088b 0a3f 0156 bb3e 58c0 c03e 9d9d 323f
000002f0: 0616 0f3f bd85 083f 1da8 0d3f a463 c23e
00000300: ca21 f13e 359e b53e c595 103f af65 a03e
00000310: aa81 6e3e f48e 433e 0b83 a13e 88e3 123f
00000320: 17e4 803e 6db3 723e 7b71 273e b233 a43e
00000330: 193b 793e c44f d63e 92e3 ff3e 0f0a c23e
00000340: 5d9d 433f 6d27 a13e d5ca 6d3e b63a 8b3e
00000350: d201 6e3e 0abb c93e 085d 803e 892b 863e
00000360: ae81 833e f691 0c3f e2ae b43e 9135 cf3e
00000370: 5541 953e 2bfc b53e 4f31 f73e a833 b23e
00000380: 608c 053f be5d 183f 6e6a 123f 3b85 e13d
00000390: fbea f43d afab 0e3f b697 053f 689c 083f
000003a0: a0ef 963e 8eb9 8c3e bcd2 883e 38b9 a73e
000003b0: f449 163f d18c fe3e 7af9 f03e d4d8 103f
000003c0: 3fbc de3e 134d 8c3e a78f 8d3e 2cf8 233e
000003d0: c0fe 0f3f 8c45 ec3e aa6b 2d3f eafe 783f
000003e0: 3979 8e3e ef15 f03e e908 9c3e 0efd bd3e
000003f0: d71c 083f 5a77 873e 3061 923e 64c3 403e

bn1.bias f4 [400]
-0.53670514 -0.40574056 -0.27191237 -0.8222594 -0.5799745 -0.7660119 -0.72040737 -0.8263621
-1.0974312 -0.5329859 -1.31557 -0.53214586 -0.8937077 -0.87446165 -0.6235078 -1.0808845
-0.563943 -1.3597896 -0.6939909 -0.33427873 -0.7070781 -1.173645 -0.26428548 -0.1241825
-0.8631183 -0.55663556 -0.58354425 -0.118769765 0.04628418 -0.85629314 -0.3778744 -0.81164753
-0.8170588 -1.0649223 -1.1775187 -0.9024723 -0.88156044 -1.0089849 -0.42495996 -0.5377216
0.009365578 -0.6471725 -1.1859363 -1.1259689 -1.2289011 -0.58123964 -0.0260587 -1.0833926
-0.3945835 -0.8919102 -0.57125753 -0.80955344 -1.1125835 -0.9821763 0.06784155 -0.4707765
-0.3354482 -0.78612226 -0.18889448 -0.7328216 -1.3734012 -1.1269617 -1.5180186 -0.40330735
-0.16613081 -0.7307503 -0.7050661 0.620555 -0.8184544 -0.84554935 -0.81503814 -0.42563093
-0.95442176 -0.9594758 -0.6251492 -1.2711382 -1.0019624 -1.0494369 -0.4929154 -1.2340158
-0.7521199 -1.2434175 -0.7994592 0.1895211 -1.3844769 -0.5841102 -0.042413197 -0.6059452
-0.7124348 -0.16484256 -0.7529281 -0.8444859 -0.2985904 -1.1944885 -1.4736812 -0.8704652
-0.8724302 -1.266348 -0.54725635 -1.0932631 -0.80430365 -0.24375169 -0.8956546 -0.6967632
-1.3330994 -0.73258364 -0.3173947 -0.1377218 -0.9588709 -0.8551999 -0.9001837 -1.219445
-0.91899985 -0.8633596 -0.9716648 -0.68252957 -0.30812055 -0.36188138 -0.7434744 -0.050599378
-1.0258788 -0.45673078 -0.86710304 -0.44386002 -0.17811863 -1.0739833 -0.533297 0.32684338
-0.815496 -0.5197401 0.10990472 -0.38569492 -1.5165132 -0.34953773 -0.8844141 -0.81882846
-0.5733924 -0.95702523 -0.6586821 -0.7837046 -0.77218586 -0.5052387 -0.55596894 -1.663482
-0.81351376 -0.4891432 -0.7846498 -0.8341533 -0.9820594 -0.041295595 -1.5541515 -0.34350902
-1.2921813 -1.104045 -0.3839525 -0.76035565 -1.0170758 -0.06060678 0.10902768 -0.37200204
-0.13712695 -0.2687497 -1.1790792 -1.0579473 -1.0423522 -0.49230185 -0.09573638 -0.7648357
-1.1566645 -0.9195245 -0.792936 -0.19150737 -0.6692126 -0.62645847 -1.0117275 -1.0060754
-0.93062615 -1.3380504 -0.69228953 -0.5797068 -0.8762424 -0.04665127 -0.7949491 -0.24253327
-0.98276573 -0.4905792 -1.6466268 -1.1657431 -0.82656866 -0.6860793 0.045931388 -0.43215877
-0.7823873 -1.096886 -0.8865458 -0.5179406 -0.8684472 -0.59262586 -0.20510997 -1.0674931
-0.35242167 -1.2306327 -0.028843908 -0.36376312 -0.10839227 -0.61882114 -1.0197147 -0.89169765
-0.83312386 -0.1712535 -0.2757332 -0.26626593 -0.024426943 -0.6973622 -0.9274922 -0.94969124
-0.33766198 -0.8482837 -1.1692193 -1.0025439 -0.13990805 -1.0088433 -0.90937877 -0.2657433
-1.0162023 -0.87533736 -0.84903693 0.042981327 -0.052821286 -0.9820458 -0.78745556 -0.73958033
-0.93881756 -0.050851475 -0.9248106 -0.35890833 -0.5616512 -0.91969955 -1.3413725 -0.40993407
-1.0183468 -0.44036 -1.1914998 0.11945281 -1.3032577 -1.0194042 -1.3819008 -0.33347479
-0.8277672 -0.82373273 -0.10242459 -0.9724731 -1.1028167 -0.38510093 -0.6338199 -0.9295413
00000000: 8265 09bf 3abd cfbe 1938 8bbe 987f 52bf
00000010: 3579 14bf 5b19 44bf 9e6c 38bf 778c 53bf
00000020: a078 8cbf c471 08bf 9964 a8bf b63a 08bf
00000030: 07ca 64bf b8dc 5fbf 359e 1fbf 6c5a 8abf
00000040: 925e 10bf 960d aebf 63a9 31bf 9526 abbe
00000050: 1203 35bf 003a 96bf 6d50 87be 6553 febd
00000060: 52f5 5cbf ab7f 0ebf 2863 15bf 903d f3bd
00000070: 7b94 3d3d 0736 5bbf c178 c1be 22c8 4fbf
00000080: c42a 51bf 604f 88bf efb8 96bf 6d08 67bf
00000090: f2ad 61bf 6b26 81bf 5a94 d9be 1fa8 09bf
000000a0: 1572 193c 19ad 25bf c3cc 97bf c01f 90bf
000000b0: a24c 9dbf 1fcc 14bf 0e79 d5bc 9cac 8abf
000000c0: d906 cabe 3a54 64bf ef3d 12bf e53e 4fbf
000000d0: 2369 8ebf e86f 7bbf 83f0 8a3d 9e09 f1be
000000e0: debf abbe 4f3f 49bf 8e6d 41be 329a 3bbf
000000f0: 9ccb afbf 4840 90bf 6f4e c2bf 4d7e cebe
00000100: 321e 2abe 7412 3bbf 367f 34bf b1dc 1e3f
00000110: 3a86 51bf ec75 58bf 57a6 50bf 4cec d9be
00000120: fc54 74bf 35a0 75bf c709 20bf a8b4 a2bf
00000130: 4e40 80bf f353 86bf 685f fcbe 3bf4 9dbf
00000140: ee8a 40bf 4e28 9fbf 5ca9 4cbf d211 423e
00000150: 8a36 b1bf 3f88 15bf 76b9 2dbd 3a1f 1bbf
00000160: 2162 36bf 7dcc 28be e5bf 40bf 3a30 58bf
00000170: d7e0 98be 00e5 98bf 96a1 bcbf cfd6 5ebf
00000180: 9657 5fbf b117 a2bf fe18 0cbf 0cf0 8bbf
00000190: d8e6 4dbf 0b9a 79be 9f49 65bf 135f 32bf
000001a0: 00a3 aabf 9a8a 3bbf 8f81 a2be f206 0dbe
000001b0: 9078 75bf 61ee 5abf 7072 66bf c616 9cbf
000001c0: 9343 6bbf 2205 5dbf 06bf 78bf 42ba 2ebf
000001d0: fac1 9dbe 8448 b9be 5754 3ebf 4b41 4fbd
000001e0: ff4f 83bf 9ed8 e9be 77fa 5dbf 9f41 e3be
000001f0: bb64 36be 4978 89bf 2786 08bf 0458 a73e
00000200: 59c4 50bf b00d 05bf ba15 e13d ce79 c5be
00000210: 1b1d c2bf 9cf6 b2be f668 62bf be9e 51bf
00000220: d8c9 12bf 9bff 74bf 649f 28bf dda0 48bf
00000230: f9ad 45bf 5357 01bf fb53 0ebf faec d4bf
00000240: 7042 50bf fa70 fabe cfde 48bf 128b 55bf
00000250: 3f68 7bbf 9225 29bd 70ee c6bf 6ae0 afbe
00000260: 3266 a5bf 5951 8dbf 6c95 c4be aba6 42bf
00000270: 8a2f 82bf d13e 78bd e749 df3d 0d77 bebe
00000280: 026b 0cbe 9099 89be 11ec 96bf d16a 87bf
00000290: cc6b 85bf fd0e fcbe 6f11 c4bd 46cc 43bf
000002a0: 950d 94bf f565 6bbf dbfd 4abf 821a 44be
000002b0: 8451 2bbf 955f 20bf 4980 81bf 14c7 80bf
000002c0: 843d 6ebf 3c45 abbf e339 31bf aa67 14bf
000002d0: 6c51 60bf 6715 3fbd c981 4bbf a45a 78be
000002e0: 8996 7bbf 322d fbbe abc4 d2bf 1237 95bf
000002f0: 019a 53bf e5a2 2fbf 8d22 3c3d ea43 ddbe
00000300: 894a 48bf c366 8cbf aaf4 62bf c197 04bf
00000310: 8e52 5ebf 54b6 17bf 5908 52be 9da3 88bf
00000320: 9d70 b4be 5f85 9dbf 0f4a ecbc 293f babe
00000330: c4fc ddbd 106b 1ebf 0386 82bf 4c46 64bf
00000340: 9b47 55bf 145d 2fbe e72c 8dbe 0254 88be
00000350: 031b c8bc 5486 32bf 2170 6dbf f71e 73bf
00000360: 08e2 acbe 1f29 59bf faa8 95bf 5c53 80bf
00000370: 0e44 0fbe c721 81bf 0ccd 68bf 810f 88be
00000380: eb12 82bf 1c16 60bf 7c5a 59bf 300d 303d
00000390: 225b 58bd 5b67 7bbf b096 49bf 2355 3dbf
000003a0: 5956 70bf a349 50bd 63c0 6cbf d5c2 b7be
000003b0: 5fc8 0fbf 6e71 6bbf 18b2 abbf e1e2 d1be
000003c0: 3059 82bf de76 e1be 1183 98bf ada3 f43d
000003d0: 26d1 a6bf d67b 82bf 20e2 b0bf 35bd aabe
000003e0: 8de8 53bf 26e0 52bf fcc3 d1bd fff3 78bf
000003f0: 1929 8dbf f32b c5be 0542 22bf 6bf6 6dbf

bn1.running_mean f4 [400]
-1.0153335 -1.8148379 -4.917862 -3.4921129 -4.7818427 -0.8637256 -3.4611814 1.3154697
-5.6599765 -1.0731328 1.9088221 -0.06663997 -1.9436696 -3.814449 0.18271007 -0.6955563
-1.5859221 -3.4146078 -2.6401052 2.3380156 2.4565978 -8.302172 1.9154094 -4.1214294
-1.0350248 5.0548387 -1.0187389 0.056404747 -0.7360142 -0.5910125 1.1774198 -2.3111017
-0.11449406 -3.9802158 0.13694003 2.1301785 1.7536851 -1.7290787 1.5952767 0.15190545
0.21223068 3.4836907 -0.38097563 -0.7460676 3.8258584 2.2688982 0.06371703 -4.699333
-1.0360396 -2.4642985 -6.3494883 -5.248103 4.015662 -1.9188616 2.2034574 -4.1308837
-4.1192594 -0.28797564 2.4179828 1.2241167 0.7345658 -2.5690606 5.209958 -1.4485986
-1.4011531 -2.9700198 -0.2568508 -2.5351493 3.1026182 1.367269 0.7889121 -3.057018
-0.67701447 -3.9797542 -1.4035702 8.503615 -5.6239424 -1.606843 -0.2528035 1.5916998
2.1271589 -3.0436654 -10.591305 1.9886272 1.6924825 -3.1434336 -5.071406 -4.719258
0.23341046 1.0219169 -1.3976626 -1.9677835 1.0963311 -3.663737 5.9415197 1.0045182
3.4174874 -0.13346864 1.7895324 2.2801063 5.11085 0.21526024 -1.9703091 -3.749121
-0.06805345 -0.11591011 -0.4176487 0.5753162 2.0855832 -2.3882756 2.3189738 -1.9419318
0.29541427 -5.508218 1.9635721 4.135192 -1.903558 0.40751275 3.3588207 1.1182235
-1.6753561 -4.65373 1.5254756 -1.3598077 1.4616256 -8.297275 5.6223507 1.5079358
-1.548421 0.9536115 -1.4391073 -1.5834476 -2.7989414 11.72994 -8.98512 -5.3862343
6.8837056 1.5875494 -1.5896572 -0.3636749 -1.0766258 2.9926627 2.0450056 -2.655729
-3.7883105 1.4398353 -2.121051 3.8525991 3.5341039 -2.9792106 2.1423707 0.611403
-0.042732287 2.7607286 1.0459037 -1.0022249 -1.0934637 -1.9157612 0.71789 -3.4445598
-2.2333238 -1.7797673 1.7779968 -4.8604383 1.1126552 -1.7299469 -1.1442015 1.0936139
-7.8939695 7.916874 -6.5408506 -6.2753487 3.6183817 2.278949 -0.05498152 -8.870919
-4.46116 4.195854 5.225665 0.273456 -6.027699 0.37722516 -1.4348685 1.6308088
0.24010383 -2.1831641 4.294071 -2.2053936 0.7509033 -1.9213784 0.19908886 -0.67230314
2.6705081 7.376292 -5.5545535 1.7110403 6.419635 -4.842303 3.7785769 1.2767302
1.9339712 -3.1673489 -2.7639968 3.4581528 0.1361855 -5.165549 -9.196394 3.576247
2.0000784 -0.43217045 2.4277382 1.3451923 1.4842399 -0.13074425 -6.2480416 0.13967322
-1.7770667 2.0893977 -2.2498877 -2.6363356 0.20970622 -4.058514 -3.1622174 -0.7888368
-8.93173 0.9581588 5.405555 6.0262322 4.4625006 -1.2229593 2.7175817 0.47328156
-0.512866 3.555509 2.2565536 5.482317 -1.0256026 -8.098995 -5.5922227 2.2593539
5.372055 4.315569 -1.2791476 1.605645 -5.2585626 -5.3957295 -1.2484527 -0.7994579
1.0318941 -2.1921525 0.09260257 -12.069319 -7.3220663 1.9782393 2.4824307 -2.7613802
00000000: 73f6 81bf 9c4c e8bf 205f 9dc0 c77e 5fc0
00000010: db04 99c0 1f1d 5dbf ff83 5dc0 5061 a83f
00000020: 871e b5c0 6a5c 89bf 4854 f43f 897a 88bd
00000030: 2aca f8bf ef1f 74c0 5918 3b3e fa0f 32bf
00000040: 7fff cabf ef88 5ac0 7cf7 28c0 0ca2 1540
00000050: e638 1d40 b2d5 04c1 232c f53f c0e2 83c0
00000060: b17b 84bf 3dc1 a140 0966 82bf aa08 673d
00000070: 6d6b 3cbf 984c 17bf b1b5 963f 17e9 13c0
00000080: dd7b eabd dbbb 7ec0 023a 0c3e d854 0840
00000090: c178 e03f 7352 ddbf 0732 cc3f 1a8d 1b3e
000000a0: 0053 593e caf4 5e40 3d0f c3be 49fe 3ebf
000000b0: ddda 7440 a135 1140 137e 823d f060 96c0
000000c0: f29c 84bf 11b7 1dc0 022f cbc0 76f0 a7c0
000000d0: 4e80 8040 429d f5bf 7205 0d40 3330 84c0
000000e0: f9d0 83c0 8b71 93be 3bc0 1a40 dbaf 9c3f
000000f0: 810c 3c3f 7d6b 24c0 fab7 a640 ae6b b9bf
00000100: fc58 b3bf ce14 3ec0 f381 83be e33f 22c0
00000110: 4c91 4640 ac02 af3f 25f6 493f 2fa6 43c0
00000120: d250 2dbf 4bb4 7ec0 30a8 b3bf cf0e 0841
00000130: 56f7 b3c0 08ad cdbf 766f 81be d2bc cb3f
00000140: 5f23 0840 6acb 42c0 fc75 29c1 568b fe3f
00000150: 44a3 d83f 042e 49c0 f548 a2c0 2904 97c0
00000160: 2703 6f3e 2cce 823f 9ce6 b2bf 54e0 fbbf
00000170: 9454 8c3f ab7a 6ac0 ee20 be40 0d94 803f
00000180: 1db8 5a40 01ac 08be 660f e53f 43ed 1140
00000190: 158c a340 2e6d 5c3e 1733 fcbf 99f1 6fc0
000001a0: 9b5f 8bbd 4862 edbd 0dd6 d5be ec47 133f
000001b0: 327a 0540 82d9 18c0 116a 1440 3991 f8bf
000001c0: 8a40 973e 5243 b0c0 5556 fb3f 7e53 8440
000001d0: caa7 f3bf 83a5 d03e ebf6 5640 f321 8f3f
000001e0: 1272 d6bf 5beb 94c0 c942 c33f 2e0e aebf
000001f0: 8c16 bb3f a3c1 04c1 4cea b340 0a04 c13f
00000200: a932 c6bf e21f 743f ab34 b8bf 69ae cabf
00000210: db21 33c0 d6ad 3b41 0dc3 0fc1 085c acc0
00000220: 5147 dc40 d234 cb3f e379 cbbf 9933 babe
00000230: e0ce 89bf c987 3f40 5fe1 0240 77f7 29c0
00000240: ae73 72c0 864c b83f 4dbf 07c0 fc90 7640
00000250: c22e 6240 63ab 3ec0 9a1c 0940 e884 1c3f
00000260: 0d08 2fbd c7af 3040 2ce0 853f e848 80bf
00000270: 9ef6 8bbf aa37 f5bf a4c7 373f ab73 5cc0
00000280: c7ee 0ec0 6acf e3bf 6695 e33f b688 9bc0
00000290: 7c6b 8e3f e66e ddbf 3275 92bf 8afb 8b3f
000002a0: 669b fcc0 0857 fd40 a64e d1c0 a8cf c8c0
000002b0: 9193 6740 4dda 1140 4d34 61bd 49ef 0dc1
000002c0: d3c1 8ec0 7044 8640 a638 a740 6d02 8c3e
000002d0: e9e2 c0c0 a823 c13e c5a9 b7bf 58be d03f
000002e0: c7dd 753e f6b8 0bc0 0869 8940 2b25 0dc0
000002f0: 333b 403f baef f5bf f3dd 4b3e 0f1c 2cbf
00000300: 9be9 2a40 960a ec40 e7be b1c0 5e03 db3f
00000310: a66d cd40 25f4 9ac0 34d4 7140 e56b a33f
00000320: 5e8c f73f d8b5 4ac0 53e5 30c0 6052 5d40
00000330: 3674 0b3e 2d4c a5c0 6e24 13c1 3be1 6440
00000340: 4901 0040 7245 ddbe 1060 1b40 432f ac3f
00000350: 93fb bd3f d2e1 05be f5ef c7c0 7f06 0f3e
00000360: ec76 e3bf b1b8 0540 29fe 0fc0 b9b9 28c0
00000370: 3abd 563e 59df 81c0 c561 4ac0 35f1 49bf
00000380: 5ee8 0ec1 e549 753f 4efa ac40 e5d6 c040
00000390: cecc 8e40 ee89 9cbf dcec 2d40 f651 f23e
000003a0: 304b 03bf 768d 6340 606b 1040 246f af40
000003b0: f246 83bf 7c95 01c1 7df3 b2c0 4199 1040
000003c0: e0e7 ab40 2419 8a40 1cbb a3bf c685 cd3f
000003d0: 2546 a8c0 d1a9 acc0 4ccd 9fbf 46a9 4cbf
000003e0: 1b15 843f 3a4c 0cc0 6ba6 bd3d ee1b 41c1
000003f0: 5e4e eac0 f236 fd3f 25e0 1e40 74ba 30c0

bn1.running_var f4 [400]
30.902594 21.152077 6.8466916 92.353745 68.20652 56.5649 28.934912 35.09228
51.54101 62.471703 166.03883 10.687735 53.81528 53.97797 58.52483 102.95889
69.22862 86.255356 33.4916 40.145493 127.62253 44.207455 39.33688 42.015797
19.043892 75.30573 62.216785 25.0088 63.047146 42.21459 12.729244 103.15107
17.793869 38.898647 63.42704 231.85138 55.360588 30.911497 14.425172 72.397285
52.960724 103.02735 74.33658 122.24742 66.82784 374.41217 41.61251 33.552074
28.64435 21.516739 126.889595 25.91568 140.83855 44.520653 18.019062 40.049545
49.044697 34.23993 88.36424 68.598656 178.11006 94.14492 132.02191 49.329422
31.710333 22.33829 79.051575 16.601768 32.66413 88.37085 51.20561 36.887154
72.49374 17.559143 67.02418 102.239685 52.62732 203.21004 187.89246 77.85225
67.339455 95.14911 39.778088 7.4598265 65.37899 30.678902 100.94096 38.93247
9.228226 77.49856 63.81226 28.980097 64.52961 57.51518 86.14046 75.69576
53.878067 74.28112 131.80705 115.06155 87.85634 120.72461 26.017159 45.173923
50.51055 32.248337 12.075969 71.52907 19.852573 41.318996 46.780964 56.875694
38.69606 102.85359 39.573944 31.764385 82.18319 38.208088 25.604534 67.08483
52.218826 22.89894 45.474693 41.89784 56.251568 46.609055 13.276142 5.972348
38.95484 86.15652 39.07682 55.372494 54.61324 23.450779 63.859493 14.433779
22.079798 85.21124 25.15334 101.80733 45.10861 50.279797 107.60723 79.02263
61.762486 52.828346 121.875755 18.355314 136.82419 10.000751 90.755226 41.475655
74.37031 86.91712 158.58362 47.901455 47.34039 8.246013 36.053738 52.67159
19.722143 50.804737 115.61747 52.74463 77.3976 21.396555 54.549564 85.38661
42.10683 120.03148 66.17871 23.979034 14.660131 54.254215 126.2094 142.36633
49.620224 199.85054 42.970768 28.789062 44.37795 4.59019 54.845715 58.816174
36.87507 95.547615 44.667706 17.97091 96.873184 30.079603 55.14513 14.603966
64.96658 149.18674 124.705894 44.027256 112.304 59.526836 18.49988 142.28462
43.75267 61.436176 127.80197 37.20579 3.8356462 42.304424 49.56205 93.20643
197.3122 8.441929 25.463314 44.775948 41.13018 24.752949 81.063416 42.997646
21.957224 34.566498 95.8248 17.123543 37.856094 19.887468 42.29158 3.3200154
119.27139 68.68953 121.092865 67.84254 29.2036 55.619614 29.026705 25.864655
63.862938 96.554955 29.743616 34.431717 143.04472 169.65045 126.6086 61.197147
73.56234 46.952816 60.659492 28.659521 36.06119 51.37473 75.48128 81.17884
59.099453 27.133858 15.200858 40.33322 58.26408 35.728794 20.20027 25.012304
00000000: 8338 f741 7437 a941 1918 db40 1eb5 b842
00000010: bd69 8842 7542 6242 b37a e741 7f5e 0c42
00000020: ff29 4e42 06e3 7942 f109 2643 f600 2b41
00000030: d942 5742 71e9 5742 6d19 6a42 f4ea cd42
00000040: 0e75 8a42 be82 ac42 66f7 0542 fc94 2042
00000050: bc3e ff42 6fd4 3042 f758 1d42 2d10 2842
00000060: e459 9841 899c 9642 fddd 7842 0612 c841
00000070: 4730 7c42 bddb 2842 fcaa 4b41 594d ce42
00000080: d859 8e41 3798 1b42 4ab5 7d42 f4d9 6743
00000090: 3e71 5d42 bf4a f741 81cd 6641 69cb 9042
000000a0: c8d7 5342 010e ce42 54ac 9442 ae7e f442
000000b0: dba7 8542 c234 bb43 3673 2642 5335 0642
000000c0: a127 e541 4822 ac41 79c7 fd42 5053 cf41
000000d0: abd6 0c43 2615 3242 0a27 9041 bc32 2042
000000e0: c52d 4442 b0f5 0842 7eba b042 8332 8942
000000f0: 2d1c 3243 334a bc42 9c05 0443 5451 4542
00000100: c3ae fd41 d1b4 b241 681a 9e42 6cd0 8441
00000110: 12a8 0242 e0bd b042 8bd2 4c42 728c 1342
00000120: cbfc 9042 2079 8c41 610c 8642 b87a cc42
00000130: 6082 5242 c535 4b43 78e4 3b43 5ab4 9b42
00000140: cdad 8642 584c be42 c31c 1f42 e6b6 ee40
00000150: 0bc2 8242 646e f541 c6e1 c942 d9ba 1b42
00000160: d0a6 1341 43ff 9a42 c13f 7f42 3dd7 e741
00000170: 290f 8142 8b0f 6642 ea47 ac42 3b64 9742
00000180: 2483 5742 ef8f 9442 9bce 0343 831f e642
00000190: 72b6 af42 0073 f142 2423 d041 19b2 3442
000001a0: ce0a 4a42 4cfe 0042 2b37 4141 e20e 8f42
000001b0: 12d2 9e41 a746 2542 b51f 3b42 b680 6342
000001c0: c4c8 1a42 0ab5 cd42 b84b 1e42 761d fe41
000001d0: cb5d a442 15d5 1842 16d6 cc41 6f2b 8642
000001e0: 14e0 5042 0731 b741 16e6 3542 6397 2742
000001f0: 9b01 6142 ac6f 3a42 146b 5441 7a1d bf40
00000200: c2d1 1b42 2350 ac42 aa4e 1c42 6f7d 5d42
00000210: f573 5a42 329b bb41 1f70 7f42 c2f0 6641
00000220: 6da3 b041 286c aa42 0a3a c941 5a9d cb42
00000230: 376f 3442 831e 4942 e736 d742 960b 9e42
00000240: c90c 7742 3a50 5342 63c0 f342 afd7 9241
00000250: fed2 0843 1303 2041 ad82 b542 12e7 2542
00000260: 99bd 9442 91d5 ad42 6895 1e43 179b 3f42
00000270: 8f5c 3d42 abef 0341 0737 1042 b5af 5242
00000280: f3c6 9d41 0d38 4b42 253c e742 80fa 5242
00000290: 92cb 9a42 252c ab41 c132 5a42 f2c5 aa42
000002a0: 656d 2842 1e10 f042 805b 8442 10d5 bf41
000002b0: e68f 6a41 5104 5942 366b fc42 c85d 0e43
000002c0: 1c7b 4642 bdd9 4743 11e2 2b42 0050 e641
000002d0: 0583 3142 d6e2 9240 0362 5b42 c343 6b42
000002e0: 1280 1342 6118 bf42 bbab 3242 6cc4 8f41
000002f0: 12bf c142 07a3 f041 9d94 5c42 d8a9 6941
00000300: e4ee 8142 ce2f 1543 6b69 f942 e91b 3042
00000310: a69b e042 7b1b 6e42 c1ff 9341 dd48 0e43
00000320: bc02 2f42 a5be 7542 9c9a ff42 bbd2 1442
00000330: 3a7b 7540 bb37 2942 8a3f 4642 b169 ba42
00000340: ec4f 4543 2412 0741 deb4 cb41 921a 3342
00000350: 4e85 2442 0a06 c641 7820 a242 97fd 2b42
00000360: 65a8 af41 1844 0a42 4ca6 bf42 04fd 8841
00000370: a46c 1742 8919 9f41 942a 2942 227b 5440
00000380: f48a ee42 0a61 8942 8c2f f242 61af 8742
00000390: f9a0 e941 7c7a 5e42 b136 e841 d0ea ce41
000003a0: a673 7f42 231c c142 edf2 ed41 14ba 0942
000003b0: 730b 0f43 84a6 2943 9a37 fd42 e1c9 7442
000003c0: eb1f 9342 afcf 3b42 52a3 7242 b346 e541
000003d0: a93e 1042 b97f 4d42 6af6 9642 915b a242
000003e0: d765 6c42 2412 d941 b736 7341 3855 2142
000003f0: 6b0e 6942 49ea 0e42 279a a141 3319 c841

fc2.weight f4 [300, 404]
-0.0444263 -0.044185534 -0.043740775 0.016043853 -0.028793354 0.017561328 -0.03941885 -0.058044616
-0.030290391 -0.06099394 -0.06824321 0.027306166 -0.047577467 -0.055603556 -0.014096382 -0.002029823
-0.018259816 -0.0014004277 -0.048177782 -0.0448159 -0.045763787 0.031900965 -0.009190069 -0.02527157
-0.05922933 -0.002483615 -0.008015821 -0.044439513 0.0027642918 -0.055570006 -0.03055651 -0.05452884
-0.043393496 -0.04638202 -0.032392975 -0.00020549494 -0.045224037 -0.0025109116 -0.06345353 -0.029715449
-0.049179386 0.021276891 0.033503577 -0.015343966 -0.03031462 -0.03987703 -0.011498594 0.028507814
-0.028100923 -0.044007406 0.018955123 -0.031178 0.050738927 -0.04836056 -0.027462972 0.018134736
0.045857478 0.03386487 0.0044719367 -0.03307929 -0.03199803 0.009077831 -0.032561027 -0.009527846
-0.02412481 0.021912312 0.008763853 0.04468707 -0.053202618 0.0022362205 -0.03955886 -0.054717064
-0.025901271 -0.017540848 -0.029732551 0.005967875 -0.034852754 -0.016529854 -0.012632653 -0.05680048
0.00697715 -0.054931555 -0.018627224 0.040532835 0.0022826914 -0.04332277 0.017256092 0.019637438
0.043052804 0.034126535 -0.07518618 -0.014003694 -0.028365985 -0.06501379 -0.06234464 0.02629289
0.0444116 -0.025561363 -0.019575482 -0.0039236704 -0.069238655 -0.054993145 0.008612527 -0.0069975923
-0.029329073 -0.036766186 -0.06174662 -0.022908611 0.024892569 0.013366546 -0.005802764 -0.029496279
-0.038492374 0.0070576025 -0.060530014 0.0037098073 -0.0017784627 -0.06779464 0.022512069 0.0073170913
0.043326966 0.016086277 -0.056155186 -0.02077581 -0.056835 -0.016668774 0.012156525 -0.023454074
-0.047503177 0.025130374 0.03500308 0.0013624465 -0.029023139 -0.039519668 0.028184801 -0.072529
0.026120152 0.0016553915 -0.027672868 -0.03593821 -0.03562244 -0.042421024 -0.048079684 -0.065662116
-0.05729872 -0.026976965 -0.012047233 0.04042939 -0.022486638 0.019607082 0.04329012 0.03612965
0.00043051672 -0.036674626 -0.047706723 -0.01976807 0.013674815 -0.06595519 -0.03479985 -0.02629035
0.039204687 -0.0383158 -0.035205673 -0.008283273 0.042291187 -0.05317763 -0.0008832189 -0.075714506
0.0026251886 0.036337968 -0.050851054 -0.027347896 0.020615457 -0.008799939 -0.007038341 0.023839073
-0.03707091 -0.05660092 0.011957879 -0.02542456 0.04383656 -0.025428442 -0.0459001 -0.008995506
-0.031833462 -0.047281794 0.027616462 -0.0028005503 0.0022184362 0.0065519423 -0.015549308 0.02437555
-0.00012350753 0.050477646 -0.00937198 0.017989717 -0.02604935 0.010490624 -0.024587853 -0.009373836
-0.02661176 -0.029713105 -0.012716617 -0.07461956 -0.0075229695 -0.01570171 0.039972026 0.00075554097
-0.0022888351 -0.005175503 -0.05269495 -0.03260495 0.006088703 0.015770696 0.012267043 -0.019258704
-0.01955774 -0.010268249 -0.01570718 -0.04171624 0.037659954 0.00970943 -0.036525354 -0.0056274645
-0.0014782136 0.009135023 -0.030880297 -0.05309086 0.021675905 -0.019475209 0.018053351 -0.032722667
0.005250533 -0.00012847033 -0.046913438 -0.043223236 -0.06220454 -0.06123943 -0.049285255 0.0075523527
0.008524162 0.0047969026 -0.0013154052 -0.06034513 -0.0046840347 0.029209353 -0.03444525 -0.05358845
-0.06584559 0.019056141 0.01291383 0.022105714 -0.03412871 0.008003592 -0.026660528 0.0364614
00000000: 5af8 35bd e4fb 34bd 8729 33bd 666e 833c
00000010: 0ae0 ebbc c6dc 8f3c a975 21bd 31c0 6dbd
00000020: 8e23 f8bc c8d4 79bd 19c3 8bbd 2eb1 df3c
00000030: 97e0 42bd 8ec0 63bd 83f4 66bc c706 05bb
00000040: 9c95 95bc 8e8e b7ba 1156 45bd e190 37bd
00000050: cf72 3bbd 96aa 023d f191 16bc 5306 cfbc
00000060: 749a 72bd 25c4 22bb ca54 03bc 3506 36bd
00000070: 1f29 353b 609d 63bd a551 fabc a259 5fbd
00000080: 61bd 31bd 13fb 3dbd 7fae 04bd 217a 57b9
00000090: d73c 39bd 1b8e 24bb edf3 81bd d06d f3bc
000000a0: 5370 49bd e04c ae3c 0c3b 093d 4265 7bbc
000000b0: 5e56 f8bc 1956 23bd 9964 3cbc 3889 e93c
000000c0: e833 e6bc 1c41 34bd c647 9b3c 0169 ffbc
000000d0: 9fd3 4f3d b915 46bd 07fa e0bc 4c8f 943c
000000e0: 0dd5 3b3d e4b5 0a3d 5389 923b 267e 07bd
000000f0: 5e10 03bd 2fbb 143c b65e 05bd af1a 1cbc
00000100: 65a1 c5bc 7381 b33c 4496 0f3c ca09 373d
00000110: fdea 59bd 8e8d 123b 7908 22bd 001f 60bd
00000120: e72e d4bc d3b1 8fbc ae91 f3bc 2a8e c33b
00000130: c3c1 0ebd 9e69 87bc 30f9 4ebc 9fa7 68bd
00000140: 94a0 e43b e9ff 60bd 1f98 98bc c205 263d
00000150: 3599 153b 3873 31bd a65c 8d3c b1de a03c
00000160: 2358 303d 44c8 0b3d 36fb 99bd c06f 65bc
00000170: c85f e8bc f325 85bd 185d 7fbd 3064 d73c
00000180: f0e8 353d 1066 d1bc c35c a0bc 2292 80bb
00000190: ffcc 8dbd 7e40 61bd 8e1b 0d3c 0f4c e5bb
000001a0: 8643 f0bc 2498 16bd 06ea 7cbd d7aa bbbc
000001b0: 80eb cb3c 5bff 5a3c 1d25 bebb 2ea2 f1bc
000001c0: 2eaa 1dbd 7643 e73b 52ee 77bd 3d20 733b
000001d0: 4e1b e9ba ebd7 8abd 3b6b b83c 36c4 ef3b
000001e0: 9e77 313d 5ec7 833c fb02 66bd 0832 aabc
000001f0: d1cb 68bd f48c 88bc 292c 473c c222 c0bc
00000200: b192 42bd 37de cd3c 645f 0f3d 1e94 b23a
00000210: efc1 edbc 60df 21bd d0e3 e63c 168a 94bd
00000220: eef9 d53c b9f9 d83a 36b2 e2bc f233 13bd
00000230: d6e8 11bd abc1 2dbd 34ef 44bd dc79 86bd
00000240: 10b2 6abd ccfe dcbc c261 45bc 4a99 253d
00000250: e635 b8bc 089f a03c fb50 313d affc 133d
00000260: fab6 e139 2238 16bd 2068 43bd a6f0 a1bc
00000270: 550c 603c 8413 87bd 4a8a 0ebd dc5e d7bc
00000280: 1895 203d 07f1 1cbd d333 10bd 91b6 07bc
00000290: 8639 2d3d c9d0 59bd d187 67ba 3510 9bbd
000002a0: 5b0b 2c3b 1fd7 143d 3249 50bd b208 e0bc
000002b0: bfe1 a83c 9f2d 10bc e2a1 e6bb 294a c33c
000002c0: abd7 17bd 5ed6 67bd fbea 433c 2b47 d0bc
000002d0: f78d 333d 4f4f d0bc be01 3cbd e361 13bc
000002e0: ce63 02bd 8eaa 41bd eb3b e23c 7089 37bb
000002f0: 2f63 113b adb1 d63b 86c2 7ebc 3caf c73c
00000300: cd81 01b9 a6c1 4e3d ef8c 19bc 2c5f 933c
00000310: 7265 d5bc dee0 2b3c 776c c9bc b894 19bc
00000320: e800 dabc e668 f3bc 5c59 50bc 24d2 98bd
00000330: 3e83 f6bb dfa0 80bc b5b9 233d 7f0f 463a
00000340: 4800 16bb 4497 a9bb a9d6 57bd c58c 05bd
00000350: be83 c73b 8c31 813c b5fb 483c 6ec4 9dbc
00000360: 8e37 a0bc 283c 28bc 58ac 80bc a6de 2abd
00000370: 5341 1a3d 4d14 1f3c 9c9b 15bd 9866 b8bb
00000380: 9ec0 c1ba 10ab 153c adf8 fcbc cd75 59bd
00000390: ab91 b13c 798a 9fbc 9fe4 933c 3408 06bd
000003a0: aa0c ac3b feb5 06b9 4e28 40bd d90a 31bd
000003b0: 30ca 7ebd 32d6 7abd 56df 49bd ba79 f73b
000003c0: eda8 0b3c 562f 9d3b ad69 acba 742c 77bd
000003d0: 887c 99bb 7448 ef3c 7616 0dbd 907f 5bbd
000003e0: 0dda 86bd a01b 9c3c 8794 533c 0b17 b53c
000003f0: 8cca 0bbd 7f21 033c 2e67 dabc 8d58 153d

fc2.bias f4 [300]
-0.0720686 -0.05747188 -0.14658174 -0.04139703 -0.06122314 -0.113494344 -0.14446874 -0.09744493
0.5268648 -0.103694744 -0.13278946 -0.51772785 0.9192659 -0.03637752 -0.0599143 0.66584057
0.1402158 -0.05866445 -0.028662963 -0.062629394 -0.0810831 -0.03959425 0.11412237 -0.1181129
-0.8293757 -0.06837321 -0.099413924 -0.05552635 -0.111832395 -0.08180394 -0.065000184 0.5235428
-0.04184289 -0.07365809 0.6645891 -0.035345268 -0.075020626 -0.05339659 -0.2542022 -0.086920716
-0.028903205 -0.07419157 -0.054863766 -0.10361105 -1.032435 -0.056012392 1.0337452 -0.098191805
-0.054949407 -0.021131363 -0.13915434 0.06916689 -0.070577204 0.52623385 -0.18172343 -0.12902139
-0.034494687 -0.058948126 -0.07901347 -0.02411145 -0.11610396 -0.111772075 -0.10018238 -0.07323331
-0.04594194 -0.078449845 0.45933026 -1.0695201 0.7769264 -0.31902912 -0.11612723 -0.12977885
-0.037786014 -0.58342314 0.31216303 0.24010591 1.0771145 1.1579442 -0.004318681 -0.063368954
-0.11927666 -0.11804815 -0.07128683 -0.081049085 -0.10403616 -0.06461045 0.76217043 0.69444025
-0.06753587 -0.0827554 -0.081711374 -0.09129933 -0.11830746 -0.12262464 -0.04721316 -0.028422594
-0.04562018 -0.08983034 -0.050863594 0.7288273 -0.09033101 -0.05325971 -0.07635141 -0.073554926
-0.4595528 0.44200557 -0.09728153 -0.1148577 -0.094657026 -0.12262571 -0.044450257 -0.0892975
-0.05013764 -0.07188961 -0.06563088 -0.13151652 0.9534609 -0.058370095 -0.072240554 -0.0363199
-0.08686976 -0.04346155 0.75823665 -0.10766595 -0.096333206 -0.048613735 -0.102725945 -0.12032495
-0.023883179 -0.38323817 -0.09935299 0.5478525 -0.07550788 -0.09591852 -0.16346912 -0.10751256
-0.069767036 -0.065885305 -0.04061723 -0.05530653 -0.07324674 -0.12150182 -0.08472044 -0.09778668
0.864546 -0.06526207 1.1977735 -0.10485479 0.48387477 -0.084076196 -0.0702741 -0.013459027
0.45895645 -0.14182767 -0.11770876 0.16671517 -0.03943705 -0.09757088 -0.08921334 -0.08875273
-0.05596696 -0.080452524 -0.060280055 0.7634 -0.089213096 -0.10022067 -0.05463334 -0.027929235
-0.13693106 -0.08245294 -0.16379791 -0.0772939 -0.08393194 -0.063707754 -0.06622471 -0.08362523
-0.04628899 -0.10915562 -0.089230336 -0.080067016 -0.058799252 -0.04777342 -0.076762356 0.53309995
-0.15704556 -0.07611538 -0.0681255 -0.08727625 -0.06406397 -0.07405113 -0.05088316 -0.094476655
-0.12892132 -0.08965644 -0.10978881 -0.038032655 -0.5318997 -0.10949107 0.1329933 -0.06166806
-0.053053457 -0.9232792 -0.03208621 -0.05376338 -0.081223145 -0.0592849 -0.11224615 -0.048564885
-0.88363844 0.18748899 -0.056331493 -0.15190303 -0.11085405 -0.100302145 -0.08785706 0.57598466
0.03360049 -0.12141297 -0.08586109 -0.055570766 -0.06170132 -0.0268297 -0.08215252 1.0305657
-0.03415424 -0.096537985 -0.13608202 -0.109416954 -0.014148755 -0.040957242 0.8695263 -0.1935804
-0.09761256 -0.14561234 -0.07076671 -0.11230505 -0.10609295 0.16562799 -0.03393628 -0.069643125
-0.09013878 -0.056381885 -0.07884206 -0.06803015 -0.11851109 -0.030842347 -0.09032893 -0.024885729
-0.47287166 -0.051278878 0.22854114 -0.13801372 0.51355904 -0.060571305 -0.098644376 -0.0933899
00000000: b498 93bd a267 6bbd 8619 16be ef8f 29bd
00000010: 1ec5 7abd b96f e8bd 9def 13be 3591 c7bd
00000020: 9de0 063f e95d d4bd f6f9 07be d089 04bf
00000030: 0355 6b3f 9800 15bd b268 75bd 8774 2a3f
00000040: bb94 0f3e 224a 70bd 97ce eabc d743 80bd
00000050: e50e a6bd 952d 22bd fdb8 e93d 2de5 f1bd
00000060: f751 54bf 4107 8cbd 8799 cbbd 996f 63bd
00000070: 6208 e5bd d388 a7bd d11e 85bd e706 063f
00000080: 7363 2bbd 0dda 96bd 8322 2a3f 33c6 10bd
00000090: 6aa4 99bd 62b6 5abd ca26 82be 7d03 b2bd
000000a0: 6ac6 ecbc c0f1 97bd d4b8 60bd 0832 d4bd
000000b0: d526 84bf 406d 65bd c351 843f c918 c9bd
000000c0: a112 61bd ae1b adbc 7a7e 0ebe 5fa7 8d3d
000000d0: c88a 90bd 43b7 063f b515 3abe 2f1e 04be
000000e0: 4d4a 0dbd 9773 71bd d0d1 a1bd 6085 c5bc
000000f0: eac7 edbd c2e8 e4bd 6b2c cdbd 58fb 95bd
00000100: 9e2d 3cbd 50aa a0bd 562d eb3e 09e6 88bf
00000110: a6e4 463f c957 a3be 1dd4 edbd bfe4 04be
00000120: 82c5 1abd 385b 15bf d5d3 9f3e 53de 753e
00000130: e3de 893f 8437 943f b983 8dbb 95c7 81bd
00000140: 5247 f4bd 3ac3 f1bd d4fe 91bd 10fd a5bd
00000150: e910 d5bd 7c52 84bd 9a1d 433f d6c6 313f
00000160: 3f50 8abd aa7b a9bd 4b58 a7bd 25fb babd
00000170: 2e4b f2bd a122 fbbd 9662 41bd 80d6 e8bc
00000180: 3adc 3abd f8f8 b7bd 5856 50bd 6d94 3a3f
00000190: 77ff b8bd db26 5abd 215e 9cbd f7a3 96bd
000001a0: 814a ebbe 8e4e e23e 8a3b c7bd 843a ebbd
000001b0: 8bdb c1bd 3023 fbbd 7911 36bd 9ce1 b6bd
000001c0: 205d 4dbd dc3a 93bd 7c69 86bd 44ac 06be
000001d0: 0316 743f 7b15 6fbd dbf2 93bd 2dc4 14bd
000001e0: c6e8 b1bd bd04 32bd cc1b 423f f77f dcbd
000001f0: 584a c5bd 321f 47bd fb61 d2bd ed6c f6bd
00000200: a8a6 c3bc cb37 c4be 9579 cbbd 1040 0c3f
00000210: e0a3 9abd ee70 c4bd 7364 27be 8c2f dcbd
00000220: 05e2 8ebd e0ee 86bd 415e 26bd 1a89 62bd
00000230: 6302 96bd f2d5 f8bd e981 adbd 6244 c8bd
00000240: e352 5d3f 1fa8 85bd a450 993f 1cbe d6bd
00000250: 6fbe f73e 2430 acbd deeb 8fbd 4083 5cbc
00000260: 57fc ea3e 463b 11be 4a11 f1bd 62b7 2a3e
00000270: bf88 21bd 3ed3 c7bd 7cb5 b6bd fec3 b5bd
00000280: 9c3d 65bd 4bc4 a4bd 38e8 76bd 2f6e 433f
00000290: 5bb5 b6bd 7f40 cdbd 36c7 5fbd dacb e4bc
000002a0: a837 0cbe 16dd a8bd a4ba 27be 444c 9ebd
000002b0: 82e4 abbd 3679 82bd d2a0 87bd b443 abbd
000002c0: 8699 3dbd fb8c dfbd 65be b6bd 2dfa a3bd
000002d0: 7cd7 70bd 10ae 43bd 9535 9dbd 3d79 083f
000002e0: 8dd0 20be 61e2 9bbd 6285 8bbd e4bd b2bd
000002f0: f933 83bd 1ea8 97bd dc6a 50bd fa7c c1bd
00000300: f303 04be cc9d b7bd f5d8 e0bd 21c8 1bbd
00000310: 942a 08bf db3c e0bd 652f 083e a697 7cbd
00000320: 954e 59bd 075c 6cbf d46c 03bd fd36 5cbd
00000330: 5258 a6bd b9d4 72bd 4fe1 e5bd f9eb 46bd
00000340: 2136 62bf 1dfd 3f3e dabb 66bd 788c 1bbe
00000350: 7307 e3bd 366b cdbd 67ee b3bd bb73 133f
00000360: aba0 093d 5da7 f8bd f0d7 afbd 2c9e 63bd
00000370: 86ba 7cbd f6c9 dbbc 953f a8bd 94e9 833f
00000380: 51e5 0bbd b5b5 c5bd 1659 0bbe ff15 e0bd
00000390: 2ed0 67bc c8c2 27bd 4799 5e3f f139 46be
000003a0: 18e9 c7bd 671b 15be 23ee 90bd 3100 e6bd
000003b0: 4347 d9bd 629a 293e c500 0bbd 0ea1 8ebd
000003c0: ae9a b8bd b1f0 66bd f277 a1bd 6453 8bbd
000003d0: f1b5 f2bd 17a9 fcbc 60fe b8bd 28dd cbbc
000003e0: 3c1c f2be cd09 52bd b006 6a3e 7853 0dbe
000003f0: 9b78 033f 9e19 78bd 1006 cabd 3443 bfbd
