checkpoint_actor.pth (torch_old, 548580 bytes, 10 tensors)

fc1.weight f4 [400, 33]
000000 cf 3c 8d 3e 7f 77 34 3f 3f 3c 1d c0 94 ed 21 3f
       0.27585456 0.70494837 -2.4568021 0.6325314
000010 60 20 73 3f 7b 90 ae 3e 6c b0 a7 bd 2f 31 da bd
       0.94971275 0.34094605 -0.08187947 -0.10653912
000020 05 36 63 3f 06 aa 6d 3f 34 10 07 3e f1 0b 61 3e
       0.887543 0.9283756 0.13189775 0.21977212
000030 b0 2d 38 bf 50 83 fc 3e 66 61 97 be 95 ad a9 3e
       -0.71944714 0.49318933 -0.29566497 0.33140245
000040 ab 29 c6 3d 01 6f 81 3b 17 c5 bf 3d 8c b7 74 bf
       0.09675916 0.0039500003 0.09363764 -0.9559257
000050 72 15 52 3e 62 c7 45 3e 9f 28 a0 3e 93 7f 8b bf
       0.20515993 0.1931434 0.3128099 -1.0898308
000060 a0 20 d5 be 44 f4 8a be 2d f2 5e 3e c4 6b 2e bd
       -0.41626453 -0.27139485 0.2177207 -0.042583242
000070 a1 6c df be a0 76 28 bb c9 51 fa bc 82 c2 86 3c
       -0.43637565 -0.0025705472 -0.030556576 0.01645017
000080 50 90 8d c0 23 0e 33 be 67 1c 63 3e 70 d5 d3 3f
       -4.4238663 -0.17485861 0.22178803 1.6549511
000090 1c 5e 2e be c4 a3 a2 3e 9b d3 db bf 2e 9f 22 40
       -0.17028087 0.31765568 -1.7173952 2.5409656
0000a0 ac 95 82 38 d2 00 88 3f 23 c0 dd be 17 1e 97 be
       6.2267616e-05 1.062525 -0.4331065 -0.29515144
0000b0 f6 3c 93 be c0 94 83 3e 30 5e 5e be f9 9b ac bf
       -0.28757447 0.25699425 -0.21715617 -1.3485099
0000c0 62 ba 05 c0 06 90 7b be 02 9f c6 3e 4b 24 b9 3d
       -2.089501 -0.2456666 0.38793188 0.090401255
0000d0 17 0f 7a 3e da 90 8f be f0 98 44 be 8b 73 dd 3e
       0.24419819 -0.280402 -0.19198966 0.43252215
0000e0 80 bf 8a bd fb f0 82 be 8b 13 00 bf 40 57 87 3c
       -0.06774807 -0.25574479 -0.5002982 0.016521096
0000f0 d4 30 57 bc a4 a3 12 3e c2 57 ed 3c e2 bc 0a bb
       -0.0131342 0.14320236 0.02897251 -0.0021169712
000100 ad fa a0 bc d6 c0 70 40 4a 88 ec 3f 9f de ab bf
       -0.019650782 3.7617698 1.8479092 -1.3427314
000110 d4 ac a0 3f 89 ac 0f bf 02 0c 77 3f 5f 8d f8 3e
       1.2552743 -0.5612264 0.965027 0.48545358
000120 fc 97 9a 3f 1f 23 80 bf c1 ad 40 bf a9 f1 d2 be
       1.2077632 -1.0010718 -0.7526513 -0.41199997
000130 e0 07 86 3e 39 5e 18 bf b2 7f 40 3f b2 9a 81 3e
       0.26177883 -0.5951877 0.7519485 0.25313336
000140 a5 fc 15 3f fe 66 04 3f f4 f4 66 bf 62 e5 02 3f
       0.5858863 0.51719654 -0.9021752 0.5113126
000150 b4 b6 e3 bf 3c 61 c1 3e 97 02 42 3f c1 39 b5 bf
       -1.7790132 0.37769496 0.757852 -1.415825
000160 8a c8 34 3f e7 ab d9 be 5e f1 f7 be 47 ad 2c be
       0.706185 -0.42513964 -0.48426336 -0.16862975
000170 95 8b a8 3e e0 d7 e1 bc 5b 35 59 bf 0d 64 ac bc
       0.32918993 -0.027568758 -0.8484704 -0.021043802
000180 18 32 bc b9 d3 c6 f5 bc 7b 7a 88 40 06 5d 4e 3e
       -0.00035895477 -0.030002033 4.264951 0.20152673
000190 96 3b 08 3e d5 d4 bd 3e 51 63 03 40 e2 68 d7 bd
       0.1330398 0.3707644 2.0529368 -0.10518052
0001a0 fe f3 b2 3f ac af 73 3f 91 ee 45 bc 04 ac 11 3d
       1.398071 0.9518993 -0.012080804 0.035564438
0001b0 85 b1 90 3f 21 b0 ba 3d 19 5b cc 3c 36 3e 88 bd
       1.1304175 0.09115625 0.024945782 -0.06652491
0001c0 20 36 c8 be ad 7c 0b 3e 2a fd 07 bf b9 e0 73 be
       -0.39103794 0.13621779 -0.5312067 -0.23816194
0001d0 c6 dd 8f be bd ce aa be 10 45 d6 3d 32 54 1e 3e
       -0.28098887 -0.33360854 0.104623914 0.15461805
0001e0 ba cc 52 be a4 97 cc bd 1f be cb bc a6 ee da 3d
       -0.2058591 -0.09989861 -0.02487093 0.1069005
0001f0 fa c5 b2 be 97 82 c9 3e a8 69 d6 bc 24 54 db 3d
       -0.3491667 0.39357445 -0.026173428 0.10709408
000200 53 70 b1 bc 9b be ef 3c a2 9e 19 bd f8 2a 2f c1
       -0.021660006 0.029265692 -0.0375048 -10.94799
000210 ad 79 b9 3d 24 c9 9f 3d b4 45 3b 3f 60 c7 8d bd
       0.09056411 0.078020364 0.73153234 -0.069227934
000220 46 3f 84 bf 74 f0 a2 3f 7e c0 7b be f6 37 b6 be
       -1.033181 1.272963 -0.24585149 -0.3558957
000230 ce eb 35 be 05 69 20 3e 56 cb e5 3e a6 9d e1 3d
       -0.17765734 0.15665062 0.44881696 0.11016397
000240 8b 42 c1 3e e5 a9 f1 3c 4e 39 2e 3e a6 9f 92 be
       0.3774608 0.029499957 0.17014048 -0.28637427
000250 ee da 4e bd a7 ba 01 3d 33 a2 fc 3d 9e ce 97 be
       -0.050501756 0.031672146 0.123356245 -0.29649824
000260 ba 97 9b 3e 8f 93 d9 be 3a 2b 6a be 36 3f 12 be
       0.30389196 -0.4249539 -0.22868052 -0.14281926
000270 49 31 7a 3e e2 47 11 bf e0 5f 98 3f 84 af 19 bd
       0.24432863 -0.5675031 1.1904259 -0.0375209
000280 89 76 8b 3f ca a7 1b bd 88 dc 82 3b c8 58 12 3c
       1.0895549 -0.038001813 0.0039935745 0.0089323
000290 cd 5b 4d c0 d4 cb 92 3f d3 a6 3b 40 a0 57 fd 3f
       -3.208728 1.1468453 2.9320571 1.9792366
0002a0 06 0e ae be cd 97 87 3f e7 70 60 be 1c 3d 15 40
       -0.33995074 1.0593201 -0.21918069 2.3318548
0002b0 c4 5f 6a 3e e1 23 bb bd 9e 21 84 be c3 3a 3d 3e
       0.22888094 -0.09137703 -0.25806898 0.18479447
0002c0 4f 57 a8 3c 38 c5 10 3f 35 5c a8 be 28 84 10 c0
       0.020549444 0.5655093 -0.32882848 -2.2580662
0002d0 e8 d2 8b bf 2e f8 0b be 4c c0 05 be 1b 61 2e 3e
       -1.0923738 -0.13668892 -0.13061637 0.1702923
0002e0 7b 7f af 3d 05 0d 4f 3e bc ab 38 3e 0b 7c ef 3d
       0.08569237 0.2021981 0.18034261 0.11693581
0002f0 4b 65 44 3e 57 f4 9f be 33 c7 57 3e fd 0e 44 3e
       0.19179265 -0.31241104 0.21072082 0.19146343
000300 f9 50 e5 bc dc 60 12 3e 22 aa 05 bd b3 ab 32 bd
       -0.027992712 0.14294761 -0.032632954 -0.043620776
000310 11 67 01 3d de 91 c8 3f 49 bf b3 3e 6d c6 3b 3f
       0.031592432 1.5669515 0.35106876 0.7334965
000320 06 62 19 be ff 73 1e bf 21 4f 87 3f 1c d6 3a bf
       -0.14978799 -0.61895746 1.0571023 -0.72982955
000330 9b 4b e1 bd 7a 8b 4c bf 77 9d 60 3d 21 bf ab bf
       -0.11000749 -0.79900324 0.05483767 -1.3417703
000340 28 87 8b be 37 f6 e8 bd ca d5 f7 bd ae ff f2 be
       -0.27251554 -0.11375087 -0.12101324 -0.47460693
000350 dc 42 eb bd 5d 2f 36 3f ee b8 46 3e 23 9a de be
       -0.11487362 0.7116602 0.19406483 -0.43476972
000360 4c 68 00 bf da 00 f1 3e 75 15 95 bd 91 73 2a bf
       -0.50159144 0.47070962 -0.07279483 -0.6658259
000370 a0 f7 48 bd 43 f9 f6 bc 7a e6 ec 3b 4c b3 e3 3c
       -0.04906428 -0.030148154 0.0072296234 0.027795456
000380 7d 03 1c 3e 54 d2 2d bc 88 45 d4 3f d4 f3 53 3c
       0.15235706 -0.010609228 1.6583719 0.012936551
000390 95 0a 26 3d c0 49 25 bd ca 54 47 c0 17 c7 d9 be
       0.040537436 -0.040353537 -3.11455 -0.42534706
0003a0 3b 90 9d 3f 43 7b 6f bf db d6 7a 3f 6d dd 8d 3f
       1.2309641 -0.9354746 0.97984093 1.1083199
0003b0 33 c4 f4 be 16 7b c0 bf df 31 67 3e 68 eb b4 bd
       -0.47805938 -1.5037563 0.22577618 -0.08833963
0003c0 c6 43 0b be ca c5 fe bd ea d8 c4 3d 8f 4f 20 3f
       -0.13600072 -0.12440069 0.096116856 0.62621397
0003d0 55 f7 ac 3e b8 04 9e bf 31 17 af 3f 2b 1e 34 bf
       0.3378245 -1.234519 1.3678952 -0.7035853
0003e0 49 56 91 3c 89 f0 28 3d de ec 05 3e c8 c5 b3 3c
       0.01774134 0.041245017 0.13078639 0.021944895
0003f0 2d 75 99 3e 26 c6 9b 3c 9f 8f 2a 3f 5f af f3 be
       0.2997221 0.019015383 0.666254 -0.47594735

fc1.bias f4 [400]
000000 81 09 49 3d c4 b8 1e 3e 84 19 bc 3d a3 a5 ee 3c
       0.04908133 0.1550017 0.09184554 0.029131716
000010 22 5f f1 bd 57 74 ed 3d bb e7 ac 39 6b bc 6c 3d
       -0.11785723 0.11594456 0.0003297905 0.057796877
000020 11 9d aa bd c0 5d 14 be fe 6b 1e be 60 3d 56 bd
       -0.08330739 -0.14488888 -0.15470883 -0.052304626
000030 dc af 04 be fe 8c 1a be 6e 8d 2f 3e bb a0 8d 3d
       -0.1295771 -0.15092847 0.17143795 0.069154225
000040 1c ae b8 bc 9e d5 1d be 29 e4 fd bd 3a 55 28 be
       -0.02254396 -0.1541352 -0.12397034 -0.16438761
000050 0f 58 31 bd 59 70 fe 3d 45 f5 b9 bc 5c bb 1d 3d
       -0.04329687 0.12423772 -0.022699961 0.038508758
000060 43 f3 3e bc 15 31 d8 3d 49 ab 2a 3e 54 23 91 bd
       -0.011654678 0.10556237 0.16666903 -0.070868164
000070 b1 49 09 be eb c7 d2 3d 9e c3 eb 3d fe 50 64 3c
       -0.13407017 0.102920376 0.115119204 0.013935326
000080 e0 77 a1 bd 14 c1 27 bd 2b 28 c9 3d 31 ea 55 3d
       -0.078841925 -0.040955618 0.098221146 0.052225295
000090 4b f7 79 bd 01 e0 4a 3d 40 5a 5f 3d 29 cd 4a bd
       -0.061026853 0.049530033 0.05452943 -0.049512062
0000a0 ff db cb bd 01 70 2e 3d 2b 24 2f 3d 18 96 2c 3e
       -0.0995407 0.042587284 0.0427591 0.16854131
0000b0 a9 fb ea bc b9 d4 c7 3c 9d 65 1d 3d b1 49 a0 3d
       -0.028684454 0.024393426 0.038426984 0.078265555
0000c0 5b 91 a7 3d 09 74 f9 bd d1 62 17 3e 25 cd 0b 3d
       0.08182021 -0.12180335 0.14783789 0.034131188
0000d0 dd ed 31 3e da 88 09 be 59 d6 1e 3e c6 63 02 3e
       0.17375894 -0.13431111 0.15511455 0.12733373
0000e0 60 bf 87 bd a0 f9 24 be b0 66 e8 3c f5 a6 d9 3d
       -0.06628299 -0.1611085 0.028369278 0.10627548
0000f0 6c fd b5 bd 9d de 93 3d 52 cc dd 3c 67 5e 17 3e
       -0.08886227 0.072201945 0.027074967 0.14782105
000100 a6 d2 2d 3e 3d 43 a2 3d 96 c7 f7 bc 63 30 70 bd
       0.16974887 0.07922981 -0.030246537 -0.058639895
000110 78 9d fa 3d 21 f7 bf bd 78 3d 84 bd 2b 43 d0 bd
       0.12237066 -0.09373308 -0.06457037 -0.10169061
000120 a6 d9 31 be 92 5d 20 3e 89 b4 e4 3d 4d 19 93 3d
       -0.17368183 0.15660694 0.11167247 0.0718256
000130 0e e9 03 3e 97 46 fe 3d 43 2d f6 3d aa 66 e9 bd
       0.12881872 0.12415808 0.12020352 -0.11396535
000140 d8 74 e9 3d 12 78 4d bc 74 b5 2a 3e 9c d4 1c 3e
       0.11399239 -0.012540834 0.16670781 0.15315479
000150 f2 b5 1f 3d 32 5b c0 bd 6e dc 27 3e cb dd 30 be
       0.038991876 -0.09392394 0.16392681 -0.17272107
000160 8f 95 98 bd b9 d2 53 3d c9 2c a6 3c 0c 33 07 be
       -0.07450401 0.051714633 0.020285027 -0.13203067
000170 4e f7 cf bd 14 67 0f 3d 61 e1 09 bd 0e d5 0f be
       -0.101545915 0.035010412 -0.033662204 -0.14046118
000180 3c 18 ce 3d 9d a5 03 3e 6f 32 89 bc ee de b3 3d
       0.10063216 0.12856145 -0.016747681 0.08782755
000190 62 52 10 3d ba 55 c5 3d 86 95 b0 3a 5f 7b 57 3d
       0.035234816 0.09635492 0.0013472296 0.05260789
0001a0 22 e4 f7 3d 07 e1 5d bd 38 43 00 3e f8 e4 47 3d
       0.1210406 -0.05416968 0.12525642 0.048802346
0001b0 49 6c 10 be c7 e4 0d 3e 8d 45 8b bd 6a 61 2e be
       -0.14103808 0.13856803 -0.06800375 -0.17029348
0001c0 09 a2 33 bd 03 52 30 be 77 ba 49 bd 35 50 31 bd
       -0.0438557 -0.17218785 -0.049250092 -0.043289382
0001d0 31 a7 00 be b8 21 11 3e 11 6f de 3d 97 cf b3 3d
       -0.12563778 0.14173019 0.10861028 0.08779829
0001e0 89 ba 24 3e e7 92 90 bd cd 46 8d 3d 79 96 04 3e
       0.16086783 -0.070592694 0.0689827 0.12948026
0001f0 d1 a0 0e 3e f5 98 82 3d 6c aa a3 3d 8b e0 20 3e
       0.13928534 0.063768305 0.0799149 0.15710656
000200 11 a4 14 3e c5 25 0e be 90 3d 12 3e 0f 9f 8b bd
       0.14515711 -0.13881595 0.14281297 -0.068174474
000210 30 ce e6 3d 99 9f 2d be ed ab 1e 3e 5c a4 14 3e
       0.11269796 -0.16955413 0.15495272 0.14515823
000220 b2 9d 4a bd 01 f1 22 3e 1e eb 0f 3d 25 81 ea bd
       -0.049466796 0.15912248 0.035136335 -0.114504136
000230 e3 2b 8c 3d 63 0f e1 bd 70 cf ba bd fd 5d 19 3e
       0.06844308 -0.10989263 -0.09121597 0.1497726
000240 8e 61 af 3b 25 72 c3 bd e5 9d 2a be 87 30 11 bc
       0.0053522056 -0.09543256 -0.16661794 -0.0088616675
000250 5f ea 9e 3c 01 6d fb bc d9 e8 03 3c 30 86 11 3e
       0.019398866 -0.030691626 0.008051121 0.14211345
000260 4a d6 22 be 81 b3 24 3d 1a 1a a5 bc e8 bd 1c be
       -0.15902057 0.04021025 -0.020154048 -0.15306818
000270 1e 44 2d be b3 d7 09 bc b7 bc 2b be 8f 23 30 3e
       -0.16920516 -0.008413243 -0.16771208 0.17201065
000280 3e da 18 be 2c ea a1 bb 91 7e 85 bb 5d 1b d0 bd
       -0.14927003 -0.0049412455 -0.004073926 -0.10161469
000290 a5 ed 26 3e 0a de ce bc 99 57 89 bd 6c 6c 10 3e
       0.16301592 -0.02525236 -0.06706161 0.1410386
0002a0 d8 7d 67 3d db 74 56 bd 21 40 2d be f0 35 09 bd
       0.0565165 -0.052357536 -0.16918994 -0.033498704
0002b0 17 b9 32 bd 69 00 42 bd 54 96 d3 3d ce b3 56 bc
       -0.043633547 -0.047363672 0.10331407 -0.013104392
0002c0 11 18 43 3d 1b a0 11 3e 44 a5 45 3b 1d a0 27 3e
       0.047630373 0.14221232 0.003015832 0.16369672
0002d0 ce 81 96 3d f4 f1 04 be d5 53 b3 3d eb 8d 93 bd
       0.07348977 -0.12982923 0.08756224 -0.07204803
0002e0 a0 73 0c 3e 10 b2 4a 3d ed ad d6 bd 6c 23 d7 bd
       0.13715982 0.04948622 -0.104823925 -0.10504803
0002f0 42 92 30 be 4d 85 2a be 3f 71 e2 bd fc a1 36 3d
       -0.17243293 -0.16652413 -0.11056756 0.044588074
000300 58 5b 4c bd 71 b5 0b 3d 5a 12 18 be 94 c5 5f ba
       -0.0498918 0.034108583 -0.1485075 -0.00085362163
000310 b1 56 a9 bd 19 14 3a 3d 34 92 f7 bd 59 b5 ab 3d
       -0.08268488 0.045429323 -0.12088433 0.08384199
000320 05 8f 95 bd 4c 26 9e 3c 11 88 97 bd 0a 9d 17 3e
       -0.073026694 0.01930537 -0.073989995 0.14806
000330 10 02 87 3c 96 18 ae 3d 1b 92 8c bd 96 e6 0e 3e
       0.016480476 0.08500783 -0.06863805 0.13955149
000340 54 fe 84 bd b1 43 e0 3d 07 91 2a 3e 11 bf b3 bd
       -0.06493822 0.10950411 0.16656886 -0.087766774
000350 0d 79 22 3d cf 19 11 3d a3 2d 0d ba 85 09 9a 3d
       0.039666224 0.035425004 -0.00053855235 0.07521347
000360 fd bf 1d 3e 25 89 9d ba b9 fd 2c 3d 62 09 dd 3d
       0.15405269 -0.0012019022 0.042234156 0.10792805
000370 9f 27 12 be 59 da d0 3d 5c 49 b4 3b 4f fa 01 be
       -0.14272927 0.101978965 0.005501909 -0.12693141
000380 0f dc 91 3d 53 ed a4 bd 3d 19 03 be b0 88 68 bd
       0.07122051 -0.080530785 -0.12802596 -0.05677098
000390 ec fc b9 3c cc fc cc 3d ac a2 9d bd fa 31 15 3e
       0.02270361 0.10009155 -0.07697043 0.14569846
0003a0 3f 06 fd bd 65 28 03 be 4d 88 8f 3d a8 b8 26 3e
       -0.12354707 -0.12808378 0.07008419 0.16281378
0003b0 89 11 07 3e 4f b2 00 3e 9c 2e 2d 3c a4 66 7d bd
       0.13190283 0.1256802 0.010570195 -0.061865464
0003c0 e1 70 04 be d7 e8 fd bd f1 24 5c 3d 74 c1 48 bc
       -0.12933685 -0.12397926 0.053746168 -0.012253154
0003d0 75 d3 df bc 68 bd 07 bd c0 e7 22 b9 e8 77 d1 bd
       -0.02732251 -0.033139616 -0.00015535858 -0.102279484
0003e0 15 c7 1f bd 49 37 12 3e 05 a7 be bd 2a fd 50 bc
       -0.03900822 0.14278902 -0.093092 -0.0127556715
0003f0 5e 9b 0c be c4 a6 8f bd ce 4a 72 3d b7 fb 9a 3d
       -0.13731143 -0.0701423 0.05915337 0.07567542

bn1.weight f4 [400]
000000 7b bc 84 3f e1 9e 89 3f 8a 5c 55 3f f0 e5 81 3f
       1.037002 1.0751611 0.8334433 1.0148296
000010 a3 ce f5 3e 56 6a 11 3f 01 aa 0d 3f 57 9f 84 3f
       0.48009214 0.5680288 0.5533753 1.0361127
000020 5f 9c 0a 3f 62 8c 6b 3f fb 5b 87 3f 9b 33 2a 3f
       0.54144853 0.9201108 1.0574945 0.66484994
000030 d6 a8 16 3f 73 3a fb 3e 4a 2a 82 3e a1 38 6f 3f
       0.58851373 0.4906803 0.2542289 0.93445784
000040 74 1e 4a 3f 5c 9d c7 3e e2 0d 61 3f db bb 14 3f
       0.7895272 0.38987243 0.8791181 0.58099145
000050 76 e2 92 3f b0 d5 98 3f 58 e0 2c 3f 59 6c 17 3f
       1.147536 1.1940212 0.6752982 0.591497
000060 45 25 9d 3e 25 27 24 3f 75 29 4e 3f 1f 88 30 3f
       0.30692497 0.6412223 0.8053201 0.68957704
000070 26 7b 2f 3f 00 8e 82 3f aa 35 70 3f 13 48 2b 3f
       0.68547285 1.0199585 0.93831885 0.6690685
000080 89 a8 9e 3f b3 ad 67 3f 15 6f 27 3f 48 c1 42 3f
       1.2395183 0.9049942 0.6540387 0.76076174
000090 9c ff 8c 3f 92 38 67 3f c6 15 44 3f 50 10 8b 3f
       1.1015506 0.90320694 0.76595724 1.0864353
0000a0 9d 7d cf 3e 94 6a 21 3f 6f 58 c2 3e 43 88 9b 3f
       0.40525523 0.6305325 0.37958094 1.2150959
0000b0 98 9c 3e 3f e2 47 b7 3e e9 6b 60 3f 8e b8 1f 3f
       0.74457693 0.3579703 0.8766466 0.62390983
0000c0 9e ba 25 3f da 6e 91 3f d7 67 03 3f bc 5d 2a 3f
       0.6473788 1.1361954 0.5133032 0.6654928
0000d0 0b 9e 3f 3f da da 25 3f 47 82 89 3f 1c 2d 67 3f
       0.7485053 0.64787066 1.0742882 0.90303206
0000e0 0e 46 a4 3f f2 bd 80 3f d2 ff 64 3f 4c d3 8a 3f
       1.2833879 1.0057967 0.8945285 1.0845733
0000f0 2c 80 f4 3e 3f d2 1b 3f 44 6d 1b 3f 18 a0 45 3f
       0.47754037 0.60867685 0.607136 0.7719741
000100 98 a9 4b 3f 28 38 60 3f 87 48 42 3f e8 26 1a 3f
       0.79555655 0.8758569 0.7589192 0.60215616
000110 30 32 1b 3f 34 b0 48 3f 48 87 38 3e a3 d0 85 3f
       0.60623455 0.78393865 0.18020356 1.0454296
000120 a3 8d 64 3f af 2f 86 3e 11 da 57 3f 27 fc 07 3f
       0.8927862 0.26208255 0.8431712 0.5311913
000130 3e eb a0 3f 39 aa 6c 3f 84 1d e3 3e 94 cd 30 3f
       1.257179 0.9244724 0.44358456 0.6906369
000140 7b 45 2f 3f 8f 3a 4c 3f 4e 60 14 3f db 04 06 3f
       0.68465394 0.79776853 0.5795945 0.5235116
000150 f9 6c 7f 3f 56 14 1a 3f 94 72 2e 3f f0 b6 a6 3f
       0.99775654 0.6018728 0.6814358 1.3024578
000160 e9 fb 40 3f 48 db c8 3e bc a5 01 3f c9 40 65 3f
       0.75384384 0.39229798 0.50643516 0.8955198
000170 9b 5a 21 3f 6e 95 72 3f 66 be 93 3f ab 90 dd 3e
       0.6302888 0.9475926 1.154248 0.43274435
000180 6f 05 4e 3f 2d b5 66 3f 86 c8 1d 3f 45 5e 8d 3f
       0.8047704 0.901202 0.616341 1.1044394
000190 25 47 d1 3f bf dc 8e 3f dc 2c 59 3f af 42 0c 3f
       1.6349837 1.1161116 0.84834075 0.5478925
0001a0 ae f1 05 3f d4 c6 74 3f 75 5e 7c 3f 69 04 b8 3e
       0.523219 0.9561589 0.9858163 0.35940865
0001b0 01 98 51 3f 17 ff 10 3f 64 70 ba 3e 93 2e 39 3e
       0.81872565 0.56639236 0.36413872 0.18084173
0001c0 9d ba 42 3f 7a a9 12 3f 0d ed d1 3e 46 32 51 3f
       0.76066 0.5728985 0.41001168 0.81717336
0001d0 8f 90 b4 3f 50 d9 3a 3f 3c 3a 2b 3f 6e fa 29 3f
       1.4106616 0.7298784 0.66885734 0.6639775
0001e0 03 d3 4a 3f 7b a5 2f 3f 97 26 a3 3f fd c4 4e 3f
       0.7922823 0.6861188 1.2746152 0.8076933
0001f0 47 37 1a 3f 62 e5 21 3f f0 d7 2d 3f 84 54 fa 3e
       0.60240597 0.63240635 0.6790762 0.48892605
000200 9d 56 78 3f 99 81 59 3f f6 7a 3a 3e 5d a5 1e 3f
       0.9700716 0.84963375 0.18210968 0.61971074
000210 cc 6e 8d 3f a5 10 39 3f bb 2c 44 3f f8 db 64 3f
       1.1049438 0.7229102 0.76630753 0.89398146
000220 12 b2 8d 3f 3c 28 4a 3f 2a 61 04 3f ad 1b 49 3f
       1.1069968 0.7896764 0.5171076 0.78557855
000230 46 3d fb 3e 8b e3 2c 3f 06 c0 26 3f a1 82 4d 3f
       0.49070185 0.67534703 0.65136755 0.8027745
000240 13 0d cd 3e a0 48 8b 3f e7 a8 45 3f 4d 23 3c 3f
       0.40049037 1.0881538 0.7721085 0.73491365
000250 9e e6 4d 3f 81 cd 97 3e aa c9 8a 3f c5 9c b7 3e
       0.8043002 0.29648975 1.0842793 0.35861793
000260 25 54 23 3f 60 be 17 3f 33 a0 26 3f 98 09 22 3f
       0.6380027 0.59274864 0.65088195 0.6329589
000270 fe 6b 58 3f b7 ae 25 3f be 50 30 3f 36 f5 20 3f
       0.84539783 0.6471972 0.688732 0.6287416
000280 ae eb 53 3f da 18 62 3f 35 36 02 3f ef b7 47 3f
       0.82781494 0.8831917 0.50863963 0.78015035
000290 2b e8 2c 3f 8f 1c 40 3f 5c d2 4f 3f 5f 9e 52 3f
       0.6754176 0.75043577 0.8118036 0.82272905
0002a0 b5 10 b9 3f f8 3e a0 3f 98 0a cb 3e 32 b3 2f 3f
       1.4458224 1.2519217 0.3965652 0.68632805
0002b0 2d bc 1b 3f 26 20 52 3f b9 16 8c 3f 41 18 71 3f
       0.6083401 0.82080305 1.0944434 0.94177634
0002c0 7d a2 6b 3f c9 ee 4c 3f 93 2e 20 3f 7f 27 8b 3f
       0.9204481 0.8005186 0.62571067 1.0871428
0002d0 71 37 04 3f 66 26 bc 3f 5f f5 80 3f 8f 56 4b 3f
       0.51647097 1.4699218 1.0074881 0.7942895
0002e0 02 75 03 3f f8 74 1a 3f 75 37 ea 3e c9 1f 94 3f
       0.51350415 0.6033473 0.45745435 1.15722
0002f0 d7 a3 50 3f 90 02 1d 3f 07 27 6f 3f bb 6b d2 3e
       0.815 0.61332035 0.93418926 0.41097817
000300 fe 2d 6f 3f 0d 9f 1f 3f 14 11 ee 3e 0b 15 4a 3f
       0.93429554 0.6235207 0.46497405 0.7893836
000310 6c a1 41 3f 32 44 0a 3f 1b 78 68 3f 11 ad 13 3f
       0.75636935 0.5401031 0.90808266 0.57685953
000320 e3 f3 96 3f 25 99 fb 3e de 02 30 3f 94 f6 86 3f
       1.1793178 0.49140278 0.68754375 1.0544
000330 7d 05 97 3f f5 7f 95 3f 91 94 2d 3f 4e 91 22 3f
       1.179855 1.1679674 0.6780482 0.6350297
000340 0a b6 79 3f f9 b8 6e 3f c8 af 24 3f 9e 9f 0c 3f
       0.97543395 0.93250996 0.6433072 0.54931056
000350 c4 0c 22 3f c2 37 61 3f 3d 7c 7a 3f ad 84 1c 3f
       0.6330073 0.87975705 0.9784582 0.6113995
000360 8f 79 18 3f 4d 19 55 3f 77 02 6b 3f aa 9e 5a 3f
       0.59560484 0.8324173 0.91800636 0.8539835
000370 67 5d 37 3f da f5 31 3f b4 1a 42 3f 6e 77 65 3f
       0.71626896 0.69515765 0.75821996 0.8963536
000380 cd 7c 88 3f a3 0f 09 3f c9 e2 7a 3f 29 6b 33 3f
       1.0663086 0.53539485 0.98002297 0.7008539
000390 ba 11 c2 3e dc 21 61 3f 12 9c c6 3e b5 37 6a 3f
       0.3790415 0.8794229 0.38790947 0.9149125
0003a0 9a 5f 35 3f fa de 68 3f 24 60 80 3f 88 4f 7a 3f
       0.70849 0.90965235 1.002934 0.97777605
0003b0 b9 19 71 3f 1a 3c 24 3f fc 17 26 3f 73 b9 6b 3f
       0.94179875 0.6415421 0.6488035 0.9207985
0003c0 50 7b 0b 3f ba 28 a5 3f 39 60 8b 3f 22 25 a7 3f
       0.54485035 1.2903054 1.088874 1.3058207
0003d0 55 73 6d 3f 66 c0 50 3f de 5d 55 3e 6e 33 e7 3e
       0.9275411 0.81543577 0.20836589 0.45156425
0003e0 84 08 a1 3f 25 b5 52 3f 42 30 59 3f c5 24 13 3f
       1.2580724 0.82307655 0.8483926 0.5747798
0003f0 11 ea f3 3e 32 2f 39 3f a0 ec 5f 3f d1 86 8d 3f
       0.47639516 0.7233764 0.87470436 1.1056768

bn1.bias f4 [400]
000000 96 4d a3 bf 70 f1 6b bf fe 66 98 bf f2 ac 83 bf
       -1.2758052 -0.9216528 -1.1906431 -1.0287154
000010 e3 c9 be bf a9 da 99 be 2c 6c c9 bf 6b 99 b8 bf
       -1.4905361 -0.30049637 -1.5736136 -1.442182
000020 2f cf 1a bf c6 28 93 bf e4 f9 67 bf 63 4c 7d bf
       -0.6047239 -1.1496818 -0.9061568 -0.9894468
000030 64 34 09 bf 3d fa 65 bf 26 3c b9 bf f3 05 af bf
       -0.53595567 -0.8983496 -1.4471481 -1.367369
000040 88 80 e1 be ae 00 a9 bf be aa 24 bf 9c ea df bf
       -0.44043374 -1.3203332 -0.6432303 -1.7493472
000050 a0 74 be bf 8f 77 2b bc 53 72 aa bf 25 7c 60 bf
       -1.4879341 -0.010465517 -1.3316139 -0.8768943
000060 f9 fe ba 3e d6 71 ac bf cf 24 a3 bf 15 2d 80 bf
       0.36522654 -1.347224 -1.2745608 -1.0013758
000070 36 5f ac bf 31 9c 2c bf 0e bf a3 bf 22 b5 68 bf
       -1.3466556 -0.6742583 -1.279268 -0.90901387
000080 7a 78 d8 bf 92 49 63 bf 95 49 db be af 16 33 bf
       -1.6911767 -0.88784134 -0.42829576 -0.6995649
000090 e1 57 da bf 17 f7 23 bf 5c 94 3b bf b2 2d 8f bf
       -1.7058069 -0.64048904 -0.73273253 -1.118582
0000a0 ba 2b b6 bf e5 8a 8f bf d3 9d fe bf 78 a1 a0 bf
       -1.4232094 -1.1214262 -1.9891914 -1.2549276
0000b0 5a f2 89 bf 75 d5 e1 bd 3e 41 65 bf d4 af a0 bf
       -1.0777085 -0.11027042 -0.89552677 -1.2553658
0000c0 ac d3 77 bf b0 0b 75 bf 9b 59 c9 bf 9c cf 75 bf
       -0.9680736 -0.9572096 -1.573047 -0.9601991
0000d0 a7 61 5c bf 98 3e 39 bf ff 8c c7 bf 0b 57 be bf
       -0.86086506 -0.72361135 -1.5589904 -1.4870313
0000e0 0d 57 d5 bf 25 12 9a bf 0e e3 29 bf c0 37 84 bf
       -1.6667191 -1.2036787 -0.6636208 -1.0329514
0000f0 10 52 89 bd e8 bf 94 bf 80 d0 21 bf 25 85 a1 bf
       -0.06705105 -1.1621065 -0.6320877 -1.2618757
000100 c2 c4 8d bf 88 5a a2 bf 87 1b 01 bf 96 eb 5c be
       -1.1075671 -1.2683878 -0.5043263 -0.21574244
000110 59 ea 9a bf b4 e6 90 bf 43 21 83 bf 48 06 68 bf
       -1.2102767 -1.1320405 -1.0244526 -0.90634584
000120 3b 59 a9 bf f4 5c 90 bf 79 34 89 bf b7 9d a8 bf
       -1.3230356 -1.1278367 -1.0719138 -1.3173131
000130 ec 7f ac bf 30 bc aa bf 27 0d 37 be 65 56 73 bf
       -1.3476539 -1.333868 -0.17876111 -0.950537
000140 1b 92 2d bf 2b 59 a6 bf e3 d2 0b bf 56 d6 6f bf
       -0.67801064 -1.2995962 -0.5461866 -0.93686426
000150 4b 48 75 bf 03 8d 6f bf 87 d0 8b bf 49 fd bc bf
       -0.95813435 -0.9357454 -1.0923012 -1.4764796
000160 8a d1 a5 bf 26 5b a9 bf 97 43 d1 be 93 b7 92 bf
       -1.2954571 -1.3230941 -0.4087188 -1.1462272
000170 f4 1b 9a bf 15 ff 1b bf 98 69 a6 be 2e e8 d8 bf
       -1.2039781 -0.609361 -0.32502437 -1.6945856
000180 c4 dd 95 bf 41 f0 e8 be 16 1a 23 bf 01 d0 5a bf
       -1.1708302 -0.454958 -0.6371168 -0.8547364
000190 8c 30 a9 bf df ac d4 bf 75 62 68 bf da 40 74 bf
       -1.321794 -1.6615256 -0.90775234 -0.95411456
0001a0 ca f0 8a bf 28 85 84 bf ab 72 cf bf bb 59 da bf
       -1.0854733 -1.0353136 -1.6206869 -1.7058634
0001b0 0b f0 96 bf 65 26 20 bf 4b bc a1 bf c1 2e 60 bf
       -1.1792005 -0.62558585 -1.2635587 -0.8757134
0001c0 05 51 44 bf d5 cf 82 bf 5a 02 b6 bf 42 be c3 bf
       -0.76686126 -1.0219675 -1.4219468 -1.5292437
0001d0 76 58 c3 bf 18 be 92 bf e1 a7 60 be 0d 99 77 bf
       -1.5261371 -1.1464262 -0.2193904 -0.9671791
0001e0 41 34 91 bf 4c 98 31 bf 74 ae bd bf 24 99 a4 bf
       -1.1344072 -0.6937301 -1.4818864 -1.2859235
0001f0 5f 06 3e bf 1c bc 81 bf 42 1d e5 bf 3d 3a 0f bf
       -0.7422847 -1.0135531 -1.7899554 -0.5594824
000200 3a e7 72 bf eb 1e 7b bf a3 a7 86 bf 05 f1 96 bf
       -0.94884074 -0.9809405 -1.0519909 -1.1792303
000210 c8 97 a0 bf ba 04 9e be 5f 79 9a bf b0 9e a4 bf
       -1.254632 -0.3086298 -1.206829 -1.2860928
000220 31 f4 00 c0 d2 c9 4e bf e2 a7 dc be fd df 76 be
       -2.0149043 -0.80776703 -0.43096834 -0.24108882
000230 6b 49 9f be 15 f8 a8 bf d5 82 8c bf 3b d2 ab bf
       -0.311107 -1.3200709 -1.0977427 -1.3423532
000240 61 15 6e 3d b1 f9 2e bf c2 08 6b bf be b5 9c bf
       0.058125857 -0.6834975 -0.9181024 -1.2242963
000250 7c 05 8f be 9c bb c9 bf d9 fe a8 bf f4 37 63 bb
       -0.27933872 -1.5760379 -1.3202773 -0.0034670802
000260 bd 8d 37 bf 51 d0 16 bf f1 d5 4d bf 55 cd 8c bf
       -0.7170065 -0.58911616 -0.80404574 -1.1000162
000270 5f d9 cb bf 7e b4 c5 be 1c d4 46 bf d0 db 6b bf
       -1.5925711 -0.38614267 -0.77667403 -0.9213228
000280 00 a9 92 bf df bc 67 bf c0 be 58 bf 26 96 a4 bf
       -1.1457825 -0.9052257 -0.8466606 -1.2858322
000290 16 fe 8a bf e6 bc a9 bf 3c 6d 82 bf 45 a5 80 bf
       -1.0858791 -1.3260772 -1.0189586 -1.0050436
0002a0 32 03 88 bf e8 bb 8d bf 04 df 28 be 0f 68 37 3e
       -1.0625975 -1.107297 -0.16491324 0.17910789
0002b0 a2 1a 96 bf 1b 32 92 bf d1 96 08 bf 5c 77 73 bf
       -1.1726878 -1.1421541 -0.5335513 -0.95104
0002c0 0c 3c b2 bf 1a 5d 84 bf 2a 73 67 bf df 9d ca bf
       -1.3924575 -1.0340912 -0.904101 -1.5829428
0002d0 7e 37 06 bf f1 4d e4 bf cf 99 bd bf e8 49 82 bf
       -0.52428424 -1.7836286 -1.4812564 -1.0178804
0002e0 24 72 17 bf de eb 5a bf ac 11 92 bf 69 e1 4e bf
       -0.5915854 -0.85516155 -1.1411643 -0.808127
0002f0 ed eb 82 bf 86 24 70 bf 92 47 9a bf 59 24 ad bf
       -1.0228249 -0.9380573 -1.2053092 -1.3526717
000300 47 e1 8a bf fb 75 91 bf 12 b1 2c be ab 5d 35 bf
       -1.0849999 -1.136413 -0.16864422 -0.7084605
000310 3e a4 a0 bf bf 80 11 bd da cd a9 bf 0c fc a6 bf
       -1.2550123 -0.035523172 -1.3265946 -1.3045669
000320 92 47 cc bf d8 09 2b bf 50 8a a2 bf ea 2f cb bf
       -1.5959342 -0.66811895 -1.269846 -1.5873997
000330 d5 11 a3 bf 29 3a be bf da 43 05 be 62 a0 94 bf
       -1.2739817 -1.4861499 -0.13014165 -1.1611445
000340 2e 1c 8a bf 5a fc 64 bf d7 31 5d bf 06 8c 6b bf
       -1.078985 -0.8944756 -0.86404175 -0.92010534
000350 9f 69 bc bf 35 ee 25 bf 3e c5 d4 bf ab c4 75 bf
       -1.4719733 -0.648166 -1.6622694 -0.96003217
000360 65 df 64 bf f6 37 78 bf 78 b5 82 bf de 1f 63 bf
       -0.89403373 -0.9696039 -1.021163 -0.887205
000370 8a bd 82 bf d5 55 51 bf d1 1a 8e bf 34 e5 3a bf
       -1.0214093 -0.81771594 -1.1101934 -0.73005986
000380 4b f6 4d bf be f0 2f bf da 3f ac bf 83 94 a6 bf
       -0.8045394 -0.6872672 -1.3456986 -1.3014072
000390 e1 67 bf bf 96 a6 2d be b8 1d b7 bf be 6c 5f bf
       -1.4953576 -0.16958079 -1.4305944 -0.872753
0003a0 7f 7a 99 bf 57 8e 47 bf f5 1b b5 bf ed a1 9f bf
       -1.1990508 -0.7795157 -1.4149157 -1.2471291
0003b0 26 c0 76 bf 02 87 88 bf a6 b4 aa bf 74 ec bd bf
       -0.96386945 -1.0666201 -1.333638 -1.4837785
0003c0 2f 3c a1 bf ff bd cc bf 32 ec 51 bf fb b0 00 c0
       -1.2596492 -1.5995482 -0.8200103 -2.010802
0003d0 92 07 a4 bf 2e f9 ad bf fa 84 6d 3e d2 f7 3e bf
       -1.281481 -1.3591669 0.23195258 -0.74596894
0003e0 a3 b8 fc bf fb 63 82 bf a8 7c dc bf e8 41 ba bf
       -1.9743847 -1.0186762 -1.7225542 -1.4551363
0003f0 f0 77 c5 3f a7 1b 29 bf f7 ff a5 bf dc d7 50 bf
       1.5427227 -0.6605782 -1.2968739 -0.81579375

bn1.running_mean f4 [400]
000000 43 6d 6f bf 99 d5 5e 40 64 4d c1 3f c1 0c 9f 3f
       -0.93526095 3.481787 1.5101743 1.2425767
000010 d1 7b 5c bf e1 50 ce bf 74 65 17 c0 ce e3 84 3f
       -0.8612643 -1.6118432 -2.3655672 1.038202
000020 77 0c 97 bf 48 96 b1 3f 33 1f c7 3f 50 e2 54 40
       -1.1800679 1.3873987 1.5556396 3.326313
000030 3e 6b 5b c0 78 90 e4 bf 71 53 1e c0 1f 18 8d 40
       -3.4284205 -1.7856588 -2.4738429 4.4091945
000040 e3 ef 10 3e 7e 45 98 c0 82 c5 d8 3f 41 d5 91 c0
       0.1415401 -4.758483 1.6935275 -4.557282
000050 3d 2e 78 3f 1a 3a cd 3f 2f f0 97 3f dd 95 92 bf
       0.96945554 1.6033356 1.1870173 -1.1451985
000060 14 ac b9 3f 9e 7b da c0 32 f5 77 bf b6 d2 29 40
       1.4505639 -6.82759 -0.96858513 2.6534858
000070 d1 b4 76 40 e2 97 a0 be 7c 4f 32 c0 09 1a 49 40
       3.8547862 -0.31365877 -2.7861013 3.142214
000080 c5 e8 d3 c0 d6 d8 83 bf 72 3b 11 c0 ef dc 73 be
       -6.6221642 -1.0300548 -2.2692533 -0.23814748
000090 0b da 9b 40 89 b4 fd 3e f7 12 59 c0 c1 f4 e1 bf
       4.8703666 0.495518 -3.3917825 -1.7652818
0000a0 92 ee 3c 40 5b 7f 36 c0 dd e4 ec c0 6c cd d1 bf
       2.9520612 -2.8515232 -7.4029374 -1.6390815
0000b0 25 d7 b7 bf 6a 40 21 c0 e5 11 92 be 11 01 e7 3e
       -1.4362532 -2.5195565 -0.28529277 0.45118
0000c0 86 13 91 40 28 33 86 c0 62 09 b7 3d a0 df ee 3f
       4.533633 -4.1937447 0.089373365 1.8661995
0000d0 1e 68 a5 3f 30 db 0c 40 92 22 0c 40 69 41 bd 3e
       1.2922399 2.2008781 2.18961 0.36963966
0000e0 65 87 e2 bf 62 07 c3 c0 8c dc 72 3d e1 c1 12 3e
       -1.7697569 -6.094651 0.05929236 0.14331771
0000f0 1e 5d e7 c0 2b 1d 27 3f 89 ab 7e 40 e5 af a9 bf
       -7.230117 0.6527888 3.9792197 -1.3256804
000100 05 d0 4e c0 ec dd 0c 40 8a 4b 0c 3c 80 45 4d bd
       -3.2314465 2.201045 0.008562932 -0.05011511
000110 bd 48 36 40 81 e6 67 c0 ab d0 30 3f c4 da cb bf
       2.8481896 -3.6234438 0.690684 -1.5926137
000120 a1 71 31 c0 8a c5 a4 40 c8 d3 62 c0 70 42 d1 bf
       -2.7725604 5.1491137 -3.544176 -1.63484
000130 de 79 d5 bf f7 6c c7 c0 fb 6d c8 40 11 53 c3 bf
       -1.6677816 -6.2320514 6.2634254 -1.5259725
000140 08 cf b6 bf 05 f9 af c0 da 5f c3 3f cd 41 f9 40
       -1.4281931 -5.499148 1.5263627 7.7892823
000150 46 e5 14 40 3e 8d 18 41 52 b6 d1 c0 fb 64 13 c0
       2.3264937 9.534483 -6.553506 -2.3030384
000160 61 d7 f8 c0 bb 05 b9 c0 b5 46 90 40 ee ba 57 c0
       -7.7762914 -5.7819495 4.508631 -3.3707843
000170 8c c8 1d c0 ff 1e 19 be 2f 59 8e 3f 67 e3 fe bf
       -2.4653654 -0.1495323 1.1120967 -1.9913148
000180 5a bc b8 be e5 12 6b bf 02 ce 94 40 03 fb 34 40
       -0.360812 -0.91825706 4.6501474 2.8278205
000190 ed b9 b0 3e 21 8b 83 bf 64 c7 08 c0 ac 48 81 c0
       0.3451685 -1.0276834 -2.1371698 -4.040121
0001a0 a4 7e fd c0 34 61 38 40 9e 29 90 c0 cf 5e 0f 41
       -7.921709 2.8809328 -4.50508 8.960647
0001b0 5a 34 d7 be 45 c6 ba 3f 3c ee 88 c0 41 fd 44 c0
       -0.4203213 1.4591757 -4.2790813 -3.0779574
0001c0 96 9e d3 40 1c e1 9d 3f 11 e5 b6 be a3 e7 0c c0
       6.6131086 1.2334323 -0.3572164 -2.201638
0001d0 22 90 e7 3e b9 49 be bd b6 28 2a 40 2c 6a ec c0
       0.45227152 -0.09291405 2.6587348 -7.3879604
0001e0 5b ce 65 40 f7 b2 85 3f b1 9e 3e bf 58 a9 51 40
       3.59072 1.0445241 -0.74460894 3.275961
0001f0 a4 21 e3 bf ee d1 81 3f 7a 8f 52 c0 61 29 cc 40
       -1.7744641 1.014219 -3.290007 6.380051
000200 4a 76 82 40 34 c4 03 c1 d2 c4 d6 c0 67 79 1d c0
       4.0769396 -8.235401 -6.711526 -2.4605348
000210 d5 f1 41 c0 74 a1 21 3f 40 b9 c0 40 4c f1 9e bf
       -3.0303853 0.6313698 6.0226135 -1.2417388
000220 92 a1 8e bf d2 1b 78 c0 c1 57 8f be 7e 74 93 be
       -1.1143057 -3.876698 -0.27996638 -0.28799814
000230 b5 eb 10 40 b4 d6 1b c0 cd 1b d6 40 ee 0c d1 40
       2.2643864 -2.4349794 6.6908937 6.5328283
000240 fa cd ad 3f b6 ac 7a 40 58 03 87 c0 8a 77 9e c0
       1.3578484 3.9167914 -4.219158 -4.952092
000250 a7 ac 63 3f b2 0a d5 3f 9d b9 31 40 ae dc a4 40
       0.8893532 1.6643889 2.776954 5.1519384
000260 e6 09 00 41 1a 9c 47 c0 9b 3a 99 40 3d 8a 1e bf
       8.002417 -3.1189027 4.788404 -0.61929685
000270 6a 20 00 40 2d dd 94 3f 53 07 13 c0 72 66 25 40
       2.0019784 1.1629997 -2.297322 2.5843778
000280 61 0c 0a 41 88 03 f3 be c0 4a ee bf 2c fe e0 3f
       8.628022 -0.47463632 -1.8616562 1.7577567
000290 5a fe a7 40 9d d9 36 be 14 91 31 40 08 10 a1 3e
       5.249799 -0.1785645 2.7744799 0.31457543
0002a0 48 0b 0c 3f 14 ba 12 be 6e 51 c9 40 61 7d 6b 3f
       0.54704714 -0.14328796 6.29119 0.9198819
0002b0 ee af cb c0 c6 78 0e 40 b2 cb ad 3f 8f eb 4b 40
       -6.365226 2.2261214 1.3577788 3.1862524
0002c0 03 62 8b c0 4c e7 04 bf cb 12 be 40 ba 03 08 c1
       -4.3557143 -0.5191543 5.939794 -8.50091
0002d0 4b 5a 81 bf 1f db 79 bf bc d3 3e bf 91 6e 96 c0
       -1.010568 -0.9759998 -0.7454183 -4.700997
0002e0 21 e5 b7 40 1c 23 5e 3f c7 01 fb bf c4 32 52 bf
       5.74672 0.8677232 -1.9609917 -0.8210871
0002f0 6c f7 f3 c0 89 03 5c c0 57 cd df bf b6 b8 ed 3e
       -7.623953 -3.4377158 -1.748454 0.46429986
000300 52 47 26 40 06 b7 2f 40 39 83 61 bf 03 37 e3 3f
       2.598103 2.7455459 -0.88090855 1.7751163
000310 03 de ab bf 0d 9a 98 bf 6a fb 88 c0 e9 15 79 40
       -1.3427128 -1.1922013 -4.28069 3.8919623
000320 66 67 b3 be ce df 9c c0 e4 44 e5 be 38 13 11 c1
       -0.35039824 -4.90232 -0.44779122 -9.067192
000330 d5 ba 3f 40 22 37 dd bf c3 86 32 bf 7a 1f 9f bf
       2.9957783 -1.728245 -0.6973688 -1.2431481
000340 43 18 dc c0 36 77 2e 40 8f d6 9d c0 89 d2 d6 3f
       -6.8779616 2.726026 -4.932441 1.6783
000350 7b de 1a 40 0f b2 4e bf de d8 1a bf d4 5c af bf
       2.4198291 -0.80740446 -0.60487163 -1.3700204
000360 42 19 3f c0 88 fc d7 c0 30 1a 85 c0 19 a1 6c be
       -2.9859166 -6.7495766 -4.1594467 -0.23108329
000370 c8 e1 f1 3e 95 a2 86 3f 89 75 3b c0 1d dd 4d bf
       0.4724257 1.0518366 -2.9290488 -0.8041552
000380 94 59 5f bf 30 28 1d c1 a5 be 22 c0 29 36 f3 bf
       -0.8724606 -9.822311 -2.542886 -1.9000903
000390 d4 84 2b 40 62 a2 2e 40 9f c6 61 c0 e7 05 86 40
       2.6799822 2.728661 -3.5277479 4.1882205
0003a0 78 8b 60 40 dc 31 e0 be 89 26 05 c0 e2 51 30 c0
       3.5085125 -0.4378804 -2.080477 -2.7549977
0003b0 44 14 b4 bf 0b cf 1a 40 76 3a 17 3f 48 f8 75 c0
       -1.4068685 2.418887 0.5907358 -3.843279
0003c0 fe 9a 14 3d 26 40 ab c0 59 b3 89 3f ce e3 e0 be
       0.036280625 -5.3515806 1.0757858 -0.439238
0003d0 fb 1b fe c0 43 21 11 c0 6b 8d 89 c0 d7 46 2e 3f
       -7.9409156 -2.2676551 -4.298513 0.68076843
0003e0 30 c6 0e c0 bd 11 03 3e 2f 7a 3d c1 02 64 6b c0
       -2.2308464 0.12799735 -11.84233 -3.677979
0003f0 eb af ad 3f 0c 0f 44 3f c7 18 fe c0 cb c7 12 40
       1.3569311 0.7658546 -7.9405246 2.2934444

bn1.running_var f4 [400]
000000 f2 b8 86 42 b2 6c 0f 42 0d 03 85 42 8d 02 2f 42
       67.36122 35.856148 66.50596 43.75249
000010 8b 6e af 42 07 ad 51 41 3a 46 1a 43 e4 92 29 42
       87.715904 13.104743 154.27432 42.393448
000020 f4 1d c8 41 88 c8 7e 43 96 dd fa 42 0e e5 aa 43
       25.014626 254.78333 125.432785 341.7895
000030 a4 a5 7c 42 ca ac 0c 42 4a 51 5d 42 27 d5 8a 42
       63.16176 35.16874 55.329384 69.41631
000040 8d c1 e2 41 dd 74 ed 42 cf 78 9f 42 23 bc 26 42
       28.344507 118.72825 79.735954 41.683727
000050 0c d2 4f 43 0f 05 8c 42 0e 64 ca 42 aa 27 f4 41
       207.8205 70.00988 101.19542 30.519367
000060 0c 3d 22 41 96 a8 af 42 d5 7a 56 43 f0 ca 30 42
       10.139904 87.82927 214.47981 44.19818
000070 7f 07 5a 42 07 6e fe 41 01 e5 e2 42 29 35 6a 42
       54.50732 31.803724 113.44727 58.551914
000080 ab 22 4e 42 9f 16 ec 42 d6 52 42 42 96 a0 7b 42
       51.533855 118.04418 48.580894 62.906822
000090 e8 80 3f 42 d5 01 5d 42 b2 9c ea 41 a9 11 88 42
       47.875885 55.25179 29.326511 68.03449
0000a0 f6 bf 1e 42 76 86 b4 42 a1 bf 4a 42 92 9e 06 41
       39.68746 90.26262 50.687138 8.413713
0000b0 d7 76 80 42 e0 ba ff 40 b1 53 23 42 12 66 44 42
       64.23211 7.991562 40.83173 49.099678
0000c0 a7 16 21 42 6f 8b 53 42 0d 6e 0b 43 da 9c ba 42
       40.27212 52.886166 139.42989 93.30635
0000d0 66 4a e0 42 a6 60 d6 42 24 c1 ca 42 c0 88 b0 41
       112.14531 107.18877 101.37723 22.066772
0000e0 3e 69 0a 42 b5 37 4e 42 ce 08 a5 42 ef d8 f7 42
       34.602776 51.5544 82.5172 123.9237
0000f0 32 d1 32 42 af 38 91 42 87 32 c9 41 91 6f fc 41
       44.704292 72.61071 25.149672 31.554476
000100 b4 98 8f 42 a2 73 ac 42 53 77 1d 42 13 cf 21 41
       71.79825 86.225845 39.366528 10.113055
000110 51 7d 49 42 51 bd a5 42 56 bd aa 42 a0 ed 99 42
       50.37238 82.86976 85.3698 76.96411
000120 4d aa e6 41 41 bc 3b 42 8a 77 90 42 a7 1d 00 42
       28.833155 46.93384 72.233475 32.028957
000130 d5 b1 96 41 b9 c1 67 42 65 a7 85 42 c1 0a 06 42
       18.836832 57.939182 66.82694 33.5105
000140 4f 65 92 41 a4 7e 2f 43 df 31 5f 42 ba ba 7a 42
       18.299467 175.49469 55.798702 62.68235
000150 f0 fe 24 42 19 cb 77 42 9e 86 ac 42 47 47 eb 41
       41.248962 61.948338 86.262924 29.409803
000160 23 63 dd 42 83 e0 e6 42 1c f7 8a 42 22 0f 42 42
       110.69363 115.4385 69.482635 48.51478
000170 27 d7 e7 41 c6 d0 90 41 7e 42 50 42 6e 70 2b 42
       28.980055 18.10194 52.064934 42.859795
000180 fc ae 00 42 74 b5 84 42 92 24 fe 41 bd 66 4f 41
       32.170883 66.3544 31.767857 12.962583
000190 05 e6 20 41 a1 37 e2 42 ab c7 eb 42 a6 39 bd 42
       10.056157 113.10865 117.88998 94.612595
0001a0 e9 fc b6 42 69 a4 44 43 ca 6b 2f 42 31 70 73 42
       91.493965 196.64223 43.855263 60.859562
0001b0 f0 63 f7 41 66 55 d3 41 af fa 70 42 65 21 6b 42
       30.923798 26.416698 60.24481 58.78261
0001c0 2c 82 bd 42 01 7f 1c 42 0e 41 c0 41 3f 34 44 42
       94.75424 39.124027 24.031765 49.05102
0001d0 d7 b9 f5 41 88 00 23 42 ee 74 95 42 f8 bc 9a 42
       30.715742 40.75052 74.72838 77.36908
0001e0 19 46 22 42 f6 7a 24 43 3c e0 d1 41 80 c2 90 42
       40.568455 164.48032 26.23449 72.37988
0001f0 bf 69 a0 42 7b 29 4e 42 e8 12 2b 42 40 43 b1 42
       80.206535 51.54051 42.768463 88.63135
000200 82 1c 0d 42 12 34 af 42 b2 76 24 42 3c 0b 27 42
       35.27784 87.6017 41.115913 41.76097
000210 73 0c ae 41 f2 79 05 42 a7 0d 0d 42 04 c9 f2 42
       21.756079 33.369087 35.263332 121.39261
000220 d0 56 a1 42 0a cd fc 41 c6 6a 04 42 95 46 46 41
       80.669556 31.600117 33.10427 12.392232
000230 a6 de fb 41 38 46 cd 42 53 72 46 42 9e 0a 9b 42
       31.483715 102.637146 49.611645 77.52074
000240 43 36 ae 42 51 6c 3c 42 c4 3f 69 42 12 54 1a 42
       87.10598 47.105778 58.31227 38.5821
000250 37 53 55 42 34 4d 38 42 9c 82 2b 43 56 53 2a 42
       53.331264 46.075394 171.5102 42.581383
000260 ad b0 47 42 1c ad 49 42 a6 4a 55 42 1e f1 ce 41
       49.922535 50.419052 53.3229 25.867733
000270 bd cf df 42 0c 9c b8 40 20 44 a0 41 f3 01 c5 41
       111.90574 5.7690487 20.033264 24.625952
000280 46 25 e6 42 5c a9 f5 42 b0 33 80 42 66 d0 13 43
       115.0728 122.83078 64.10095 147.81406
000290 c8 29 b3 41 03 70 54 42 d3 4f 74 42 29 2a 31 42
       22.395401 53.109386 61.077953 44.291172
0002a0 79 00 5f 42 80 1e dc 41 9e ac 73 42 df 4f 21 41
       55.75046 27.514893 60.91857 10.082
0002b0 34 88 96 42 ff 1e e6 41 8e 34 77 42 62 30 ab 42
       75.26602 28.765135 61.801323 85.5945
0002c0 35 53 eb 42 10 4c 72 42 96 24 94 42 a8 46 7a 43
       117.66251 60.57428 74.07146 250.276
0002d0 19 61 b3 40 0d 1b 17 42 09 26 27 42 d9 2d 61 43
       5.6056027 37.776417 41.787144 225.1791
0002e0 0f 55 74 42 2b 46 0e 42 6c b4 7f 41 1d e8 23 42
       61.083065 35.568523 15.981548 40.976673
0002f0 72 73 d9 42 24 3f fe 41 9c cf 5f 42 16 0d cd 42
       108.72548 31.78083 55.952744 102.52556
000300 82 b9 b4 43 29 79 91 41 d2 e1 95 41 a5 1a 8c 42
       361.44928 18.18416 18.735264 70.05204
000310 84 0b 9d 41 a9 a2 52 41 91 74 59 43 ce 54 fc 41
       19.630623 13.164712 217.45534 31.541409
000320 75 e4 ac 41 11 be bb 41 19 23 5e 42 7f d5 d6 42
       21.611551 23.467806 55.534275 107.416985
000330 24 bd 9b 42 ec 53 0f 42 f2 85 6a 41 d4 5a ae 42
       77.869415 35.831955 14.6577015 87.1774
000340 5f fd ba 41 ef 60 a5 41 2a 34 f2 41 db 36 54 42
       23.373716 20.67233 30.27547 53.05357
000350 76 8c 24 42 7f ad 2f 42 96 fa 97 42 40 e2 a2 42
       41.13717 43.91943 75.989426 81.441895
000360 8d d5 9f 41 f9 2d 41 42 4c c2 ee 41 db 8a 7a 42
       19.979273 48.294895 29.844872 62.6356
000370 92 9e 3c 42 2f 2e 81 41 fc d5 9a 42 2d ee 2e 42
       47.154854 16.14755 77.41794 43.732594
000380 74 e6 1b 42 c1 59 29 42 86 57 4a 42 87 76 ea 42
       38.97505 42.33765 50.585472 117.2315
000390 06 eb db 42 2b cf a6 40 64 28 60 42 50 ba 80 43
       109.95903 5.212789 56.039444 257.45557
0003a0 20 46 e9 42 62 03 63 40 23 68 a1 42 eb fa 0a 42
       116.63696 3.5470815 80.70339 34.745037
0003b0 c5 83 93 42 08 f2 f6 42 9d 4b 20 43 bc 0a f7 42
       73.75736 123.47272 160.29536 123.520966
0003c0 19 cd eb 41 3d 05 1a 42 df e0 f4 41 02 a5 4b 42
       29.475145 38.505116 30.6098 50.91114
0003d0 5a b5 d2 41 9e ce 28 42 49 9c 15 42 13 9e ba 41
       26.33855 42.201775 37.402622 23.327185
0003e0 65 50 5b 42 83 59 d8 42 67 cc 12 42 b1 20 00 43
       54.82851 108.17483 36.69961 128.1277
0003f0 8b bf b6 42 cb 58 0c 41 9c 11 7d 42 8e ed 34 43
       91.37411 8.771678 63.267197 180.92795

fc2.weight f4 [300, 400]
000000 10 f9 13 3d bf 0a a6 bb ae ef fd bc 20 7c e5 bd
       0.036126196 -0.005067199 -0.030998077 -0.112053156
000010 e0 6e c6 bc 5d 30 b1 bd e7 52 de 3b bd a0 49 bc
       -0.024222791 -0.08651803 0.006784785 -0.012306389
000020 ee 8c 3d 3d 30 dc 10 ba 0a 4f 21 bd 0d ea da bd
       0.04627698 -0.00055259746 -0.03938202 -0.10689173
000030 1a de a6 ba ed 0f a4 bd fa 8f 00 bd 9e ce 85 bd
       -0.0012730986 -0.0801085 -0.031387307 -0.0653355
000040 17 bb 77 bd d4 fd 82 bd e1 f6 ca bc 36 a4 8a 3d
       -0.060481157 -0.0639607 -0.024775924 0.06769602
000050 75 9b 9d bc b6 bd 9e bc ba 21 6b bd 11 2c b6 3c
       -0.019239167 -0.01937757 -0.05740521 0.02223781
000060 f3 5f 83 bc 1b c6 02 bc f1 56 8f bc 2e b7 88 bd
       -0.016036963 -0.007981802 -0.017497512 -0.06675564
000070 4c 52 51 3d 24 32 a8 bc 2d 6d 01 3d 35 d2 36 bd
       0.051103875 -0.020531721 0.03159826 -0.044634063
000080 2b 79 8d bd ac e4 ba bd 02 49 8c bd 1d 2f 85 3c
       -0.069078766 -0.09125647 -0.06849863 0.016257817
000090 c6 4b 61 3c 50 ed 68 3d b3 42 a6 3c 38 4a 7c bd
       0.013750976 0.056866944 0.020295477 -0.061594218
0000a0 5f c7 63 3c 86 c8 c1 3b 1c 03 36 3d cb aa 62 3c
       0.013902514 0.005913797 0.04443656 0.0138346655
0000b0 f4 42 b4 ba f6 cf a7 bd 3d cc 11 3d 8c 08 2c bd
       -0.0013752864 -0.08193962 0.035595167 -0.04200034
0000c0 5f 05 87 3c 48 7e a7 bd e5 f5 72 3a 27 02 fd 3b
       0.016482053 -0.08178383 0.00092682085 0.007721204
0000d0 4d 4f 10 3a 7b f8 e4 ba 39 9e fa 3c 56 02 21 bd
       0.0005504981 -0.0017469072 0.030593025 -0.03930887
0000e0 e3 d9 fe 3c 22 09 61 bc 79 db b1 bd 44 df 43 bd
       0.031109756 -0.013735088 -0.08684439 -0.047820345
0000f0 e8 31 17 bd 32 db c8 3c 57 39 c4 bc 61 75 6b 3c
       -0.03691283 0.024518583 -0.023953123 0.014371247
000100 70 29 90 3c e7 1d 4e bd 2e 22 94 3c 5b 95 c0 bc
       0.017597884 -0.050321486 0.018082704 -0.023508718
000110 1b 09 4e bc 4a d2 a2 3c 78 1d 2b bc dd 60 bd 3b
       -0.012575413 0.019875664 -0.010444038 0.0057793693
000120 21 8b 47 bc 51 3b 76 3b 98 74 e8 bc a0 03 52 bd
       -0.012179167 0.0037571976 -0.028375909 -0.05127299
000130 19 6f 25 bd bd 70 09 bd 19 d8 ab 3c 1c 56 92 3d
       -0.040389154 -0.03355478 0.020977067 0.0714533
000140 6c 80 c4 3c c0 6e 3d 3c 7a 50 01 3d 73 7e 9b 3c
       0.023987018 0.011562049 0.03157089 0.018981194
000150 2a 5e a8 bb 71 54 89 3d 4d ff e2 3c c1 95 e9 bb
       -0.0051381784 0.06705559 0.027709628 -0.0071284478
000160 0f d6 1c 3d bf dd 41 bd b1 82 51 bd 49 c0 6b bd
       0.03829008 -0.047330614 -0.051150028 -0.057556424
000170 51 93 87 bd 61 a4 2c bd f2 d0 53 bd e3 99 2e 3d
       -0.06619895 -0.04214895 -0.051712938 0.042627227
000180 70 cc 7e 3c b1 b5 02 be 8c 7f 87 bc 32 22 25 bd
       0.015551671 -0.12764622 -0.016540311 -0.040315814
000190 16 6e 01 3d 7d a5 e8 3a 86 e7 62 bb f4 cd fa bc
       0.031599127 0.0017749515 -0.0034622862 -0.030615784
0001a0 52 5b 38 bc 3a 28 5f 3d d0 9f 3f bd 77 1f ab bc
       -0.011252241 0.054481722 -0.04678327 -0.020889027
0001b0 6c 4d af 3c d9 47 d9 3b d7 be fe 3c df 78 fb 3c
       0.021399222 0.0066308794 0.031096859 0.030697284
0001c0 01 9f 1e bd a2 c6 7e 3b e4 55 41 bd 6f ed ba 3c
       -0.038725857 0.0038875719 -0.047201052 0.022818295
0001d0 af 14 71 bd fa f4 3e 3d 24 77 c9 bd 0f b3 c4 3c
       -0.058857616 0.046620347 -0.098371774 0.024011163
0001e0 81 e5 29 bc 4f 3d 21 bd b4 d2 07 bd 1b 6b 1b bd
       -0.010369659 -0.03936511 -0.033159927 -0.03794394
0001f0 b6 65 df bc 03 7d b1 bc 4a 4d 07 3d 7f a4 28 3d
       -0.02727018 -0.021666056 0.033032693 0.0411725
000200 06 37 5b bd 15 fb 2e bd 53 5f e3 bc 1f 49 fc 3c
       -0.05351927 -0.04271992 -0.027755415 0.030796586
000210 a7 05 09 bd 9a 20 b2 bd 9f 98 58 bd 8c 27 47 3d
       -0.033452656 -0.086976245 -0.052879926 0.0486217
000220 8e 14 23 3d 68 0a a6 3c 6b d1 1f 3d 1a 5e c5 3c
       0.039814524 0.020268634 0.039018076 0.024092723
000230 32 c4 6f 3d 96 2e 04 bd fa a2 45 bd 30 70 2f bb
       0.058536716 -0.03227099 -0.04825113 -0.002676975
000240 2c 04 80 bd 1d d6 a3 bd 26 c1 8f bd 0b 16 7e bc
       -0.06250796 -0.07999823 -0.07019262 -0.015508185
000250 72 aa 9c bd 46 0d 56 bd 62 0f b4 bb 04 e2 75 bd
       -0.07649697 -0.052258752 -0.005494998 -0.06003
000260 90 89 c7 3b 67 67 b8 bd c3 88 84 bd 6d b5 4c bd
       0.006089397 -0.090040974 -0.06471398 -0.04997771
000270 a1 5e 1e 3d 01 5e 9d 3c 97 f6 47 bd 2e c2 89 bc
       0.038664464 0.019209864 -0.04881915 -0.016816225
000280 91 6f 48 3c 56 ce bb bd 16 06 49 bb ab 9c df bc
       0.012233631 -0.09170215 -0.0030673794 -0.027296385
000290 84 55 ba 3a 01 49 ea bc 68 ab 04 3d c7 e3 9a bd
       0.001421616 -0.028599264 0.03239003 -0.07562976
0002a0 ab e2 ae bd 50 37 d0 bd ed 87 a9 3c 9d ad 0f 3c
       -0.08539327 -0.101668 0.020694697 0.00876942
0002b0 ef 6e 35 bd 40 08 0a 3c c9 af af bd a4 5e 03 3d
       -0.044295248 0.0084248185 -0.0857845 0.03207268
0002c0 ba f0 16 bc 01 a9 53 bc 94 d9 13 3b 31 77 72 3a
       -0.009212667 -0.012918712 0.0022560107 0.0009249328
0002d0 c9 5a 48 bc 97 b6 c9 3c 33 39 3d bc 47 52 88 bc
       -0.012228676 0.024623198 -0.011549282 -0.016640795
0002e0 fa de 39 3d ed f9 82 bd de 05 36 bd 05 0a 87 bb
       0.045378663 -0.06395326 -0.04443919 -0.0041210675
0002f0 ef 35 a9 bd 7c f5 e7 bd ed e6 0b 3d ab 86 66 bd
       -0.0826224 -0.11326119 0.034155775 -0.056280773
000300 c8 59 6d bd 67 68 97 bd e4 41 08 bc 2e ea 49 bb
       -0.05794695 -0.0739296 -0.008316491 -0.0030809748
000310 03 69 e2 3c 4d 4b 02 3c ff a0 ba 3c 9c b8 9b bb
       0.027637964 0.007952523 0.022781847 -0.0047522318
000320 9c 89 61 bd f9 7b e7 bd 16 1c 55 bd 59 25 3f 3d
       -0.055062875 -0.11302943 -0.052028738 0.046666477
000330 db 2c 7c 3d 6b d7 07 bd d2 4c 37 bd 1a 9c 1d bc
       0.061566215 -0.033164423 -0.044750996 -0.009619737
000340 f6 2c eb bc 84 f0 9a 3c a1 2e 45 3c 33 46 83 3b
       -0.028707962 0.018913515 0.012035043 0.004006171
000350 b9 52 9a bc 15 89 c5 bd 8f 30 04 b9 fe cb 30 bc
       -0.018838273 -0.09645287 -0.0001260659 -0.010790823
000360 2e e3 60 bd 60 8d 9b 3c 04 a5 65 3d 8e 3c 4c bd
       -0.054904155 0.018988311 0.056065574 -0.049862437
000370 37 6e 51 bd 70 77 8b bc 29 f6 96 3b 8e 9c 0b 3c
       -0.0511305 -0.017024726 0.0046069813 0.008521212
000380 cf dd fe 3c aa 96 22 be f1 e5 44 bd 28 67 c4 3c
       0.031111626 -0.15877786 -0.04807085 0.02397497
000390 1d 72 b0 3c 74 a5 02 bd ab 54 6b bd 96 9a 89 bd
       0.021538788 -0.03189607 -0.057453793 -0.06718938
0003a0 b1 56 5b 3b 3e 29 0f bb db a9 03 bb e1 c0 26 3d
       0.003346842 -0.002184465 -0.0020090255 0.040711287
0003b0 b2 b6 03 3d 5a 31 aa 3c 3c f4 47 bd 16 94 49 3d
       0.032156654 0.020775486 -0.048816904 0.04921349
0003c0 2a 3b 8e 3c 15 15 dc bc 1b ca 4e bd de 73 56 3d
       0.017362196 -0.026865521 -0.05048571 0.052356593
0003d0 6c 9b 3b bd 71 8b a9 bd d8 d0 c7 3b 99 92 97 bc
       -0.04580252 -0.082785495 0.006097894 -0.01850252
0003e0 84 73 a4 3c 4b cf ec bc 9c 73 81 bd 4f 5c 54 bd
       0.020074613 -0.028907439 -0.06320879 -0.051845845
0003f0 df 32 d5 bc b9 fa 02 3d 09 7b 37 bc 96 20 e7 3c
       -0.026025234 0.03197739 -0.011198767 0.02821378
